easyteach-ml/model/keypoint_classifier/7gest-thumbs/keypoint_classifier.tflite (tflite, 6620 bytes, 6 tensors)

sequential/dense/BiasAdd/ReadVariableOp f4 [20]
0.015791832 -0.94062907 -0.96762514 -0.7507275 0.21662885 -0.519133 -0.46709144 -0.8556739
-0.45762604 -0.017705837 -1.0500662 -0.5116665 0.5171791 -0.9344261 -0.46108574 -0.67282104
0.4567623 -0.6417805 -0.9110087 -0.5615243
00000000: df5d 813c 11cd 70bf 48b6 77bf ad2f 40bf
00000010: f4d3 5d3e e6e5 04bf 9c26 efbe 720d 5bbf
00000020: f64d eabe d50b 91bc 9268 86bf 93fc 02bf
00000030: d965 043f 8d36 6fbf 6e13 ecbe 003e 2cbf
00000040: c0dc e93e ba4b 24bf de37 69bf 0ec0 0fbf

sequential/dense_2/BiasAdd/ReadVariableOp f4 [7]
-1.4400091 -0.893074 1.2280173 0.93249637 1.1634495 -0.030263746 -0.68292624
00000000: 3852 b8bf 7fa0 64bf ac2f 9d3f 15b8 6e3f
00000010: eaeb 943f adeb f7bc 41d4 2ebf

sequential/dense_1/BiasAdd/ReadVariableOp f4 [10]
-0.9509497 -0.9552283 0.51891106 1.1739502 0.8725765 0.67878824 1.1745074 -0.38231555
0.05997354 0.015864959
00000000: 7171 73bf d889 74bf 5bd7 043f 0044 963f
00000010: 2c61 5f3f 11c5 2d3f 4256 963f ddbe c3be
00000020: d1a6 753d 3bf7 813c

sequential/dense/MatMul f4 [20, 42]
0.29268837 -0.2904731 -0.32427457 0.617358 -0.10933847 0.3896718 -0.5543238 0.27752638
-0.920155 0.25641897 0.13110329 0.28917715 0.1256067 0.13345923 0.10384519 0.13224049
0.112453476 0.23773772 0.20435497 0.19599052 0.08193449 -0.03377289 0.016009562 -0.26681405
-0.036545485 -0.6877056 0.18052912 0.10247973 0.030698974 -0.3419051 0.02612861 -0.7418449
-0.010006698 -1.2436229 0.23384844 -0.5169263 0.040770795 -0.4256914 0.005590965 -1.103568
-0.03429262 -1.7605064 -0.030102044 -0.18908453 -0.049697235 0.102355085 0.005058272 0.055650916
0.043331575 0.076577775 0.11407609 -1.5422665 0.043517277 -0.029237881 0.008836659 0.03390318
0.004021253 0.09259927 0.006913169 0.1380189 0.07924551 -0.084510505 -0.040874586 0.08834734
-0.03552541 0.17053625 -0.034936108 0.13093288 0.045108635 -0.19101667 -0.03808775 -0.0076655
-0.014250368 0.007153578 0.0041943667 0.033497732 0.036435504 -0.16315746 -0.0043400535 -0.1717865
-0.0064824773 -0.048334394 0.028562913 -0.084290825 -0.15618743 -0.0739695 1.0417817 -0.7496905
0.5100116 -0.80426174 0.36799315 -0.66453844 0.016374994 -0.021774651 0.5091959 -0.22340542
0.09133371 0.021222094 -0.22869991 0.18366633 -0.32644987 0.3149955 0.50648993 -0.11461628
0.16806039 -0.14134999 -0.03816446 0.13070557 -0.18184105 0.12572303 0.46399564 -0.14704798
0.22264579 -0.07568457 -0.06829914 0.16028477 -0.24067962 0.2020849 0.3623937 -0.19716269
0.37703264 -0.25565952 0.21558851 -0.004886236 -0.028688056 0.0795962 0.24366575 0.24470216
0.15731408 -0.029676907 0.37810674 -0.34151405 0.406854 -0.44406494 0.7995342 -0.34703755
-0.11612632 0.099160135 -0.0028405576 0.15658936 0.19408529 0.13864218 0.23445423 -0.007347965
-0.22796394 0.045477487 -0.10010978 -0.032822058 -0.30923536 -0.10992125 -0.5423823 0.030148648
-0.15586962 0.15757093 -0.17739771 -0.061422452 -0.49915612 0.28289548 -0.8222386 0.54081416
-0.033981815 0.28964958 -0.26733923 0.04103987 -0.5496431 0.35095525 -0.932991 1.0675764
0.22321355 -0.053293467 0.20127398 0.34742105 0.426876 0.1673507 0.42784804 0.14299642
0.6428169 0.077268474 1.608314e-05 0.20164603 0.026254045 0.08489788 0.0574303 0.15609685
-0.08391421 0.20943174 0.008415212 0.38070503 0.03225351 0.15495065 -0.014077395 -0.17047359
-0.06579434 -0.50312287 0.027196918 0.10228459 0.014186521 -0.49047002 0.0014817909 -0.9675568
-0.0835235 -1.3511302 0.022367721 -0.4865385 -0.033145446 -0.7829994 -0.033037018 -1.0345767
-0.0712221 -1.4806062 -0.09447399 0.06504619 -0.2744651 -0.5523874 -0.08281474 -0.16911075
-0.034013025 -0.2918678 0.04241321 -0.052291427 0.37586457 -0.484155 0.26287106 -0.3660275
0.020979157 0.0034401983 -0.051783673 0.08820348 0.56978065 -0.6606752 0.1495582 -0.055327203
-0.13842608 0.39154816 -0.5015885 0.38614216 0.5829421 -0.60019815 0.16628431 -0.09162729
-0.118118145 0.39928618 -0.5138699 0.39926615 0.69695145 -1.104633 0.36929926 -0.32845896
0.15142342 0.19170706 -0.13116789 0.2950284 -0.15312086 -0.10884845 -0.3992283 0.21383755
00000000: 40db 953e e4b8 94be 5107 a6be 2d0b 1e3f
00000010: d9ec dfbd 1083 c73e 2ae8 0dbf f017 8e3e
00000020: 478f 6bbf 5949 833e f13f 063e 070f 943e
00000030: 0b9f 003e 89a9 083e c9ac d43d 0d6a 073e
00000040: 024e e63d 8471 733e 6e42 513e bdb1 483e
00000050: 45cd a73d 7155 0abd 7c26 833c da9b 88be
00000060: b8b0 15bd 790d 30bf a0dc 383e e5e0 d13d
00000070: 6a7c fb3c 2f0e afbe ab0b d63c 8ce9 3dbf
00000080: 22f3 23bc 092f 9fbf f775 6f3e 4855 04bf
00000090: 47ff 263d 39f4 d9be 6a34 b73b b741 8dbf
000000a0: 6b76 0cbd 4658 e1bf 9098 f6bc 609f 41be
000000b0: 548f 4bbd 8b9f d13d dcbf a53b 37f2 633d
000000c0: 737c 313d cfd4 9c3d baa0 e93d fd68 c5bf
000000d0: 2c3f 323d 4884 efbc a2c7 103c 10de 0a3d
000000e0: b7c4 833b b0a4 bd3d dd87 e23b d454 0d3e
000000f0: 784b a23d d813 adbd 1c6c 27bd 73ef b43d
00000100: 1883 11bd 0ea1 2e3e 2a19 0fbd 4513 063e
00000110: d5c3 383d e099 43be e701 1cbd e02e fbbb
00000120: 607a 69bc 9068 ea3b e670 893b eb34 093d
00000130: 653d 153d c012 27be 0237 8ebb cde8 2fbe
00000140: f66a d4bb 49fa 45bd c5fc e93c aba0 acbd
00000150: 99ef 1fbe 527d 97bd 1a59 853f b7eb 3fbf
00000160: 1f90 023f 19e4 4dbf 9969 bc3e 311f 2abf
00000170: da24 863c c160 b2bc aa5a 023f 64c4 64be
00000180: 2b0d bb3d f5d9 ad3c 4f30 6abe 0713 3c3e
00000190: 7024 a7be 1747 a13e 53a9 013f f1bb eabd
000001a0: 0618 2c3e 0dbe 10be 5652 1cbd aed7 053e
000001b0: 8a34 3abe 8abd 003e d690 ed3e bf93 16be
000001c0: 42fd 633e 8300 9bbd 6be0 8bbd b121 243e
000001d0: b874 76be 58ef 4e3e ab8b b93e 04e5 49be
000001e0: 6c0a c13e cee5 82be 3cc3 5c3e b81c a0bb
000001f0: 3703 ebbc 5503 a33d 8483 793e 3493 7a3e
00000200: f116 213e fc1c f3bc 3597 c13e eeda aebe
00000210: 2b4f d03e 7b5c e3be 46ae 4c3f e8ae b1be
00000220: a3d3 edbd 7814 cb3d a628 3abb f658 203e
00000230: 4bbe 463e 37f8 0d3e c514 703e 33c7 f0bb
00000240: 616f 69be 9a46 3a3d 5b06 cdbd 6c70 06bd
00000250: 1954 9ebe 641e e1bd 91d9 0abf 4cfa f63c
00000260: 499c 1fbe 465a 213e bfa7 35be 1c96 7bbd
00000270: 6491 ffbe add7 903e 3b7e 52bf cc72 0a3f
00000280: 8430 0bbd f34c 943e b0e0 88be 6c19 283d
00000290: 69b5 0cbf 68b0 b33e 80d8 6ebf 58a6 883f
000002a0: 1892 643e 404a 5abd c41a 4e3e 2ce1 b13e
000002b0: 7e8f da3e fb5d 2b3e e60e db3e a76d 123e
000002c0: a68f 243f ef3e 9e3d 48ea 8637 4c7c 4e3e
000002d0: b912 d73c f1de ad3d 093c 6b3d dad7 1f3e
000002e0: 37db abbd 4675 563e f5df 093c c5eb c23e
000002f0: 421c 043d 62ab 1e3e e0a4 66bc a190 2ebe
00000300: 2fbf 86bd a9cc 00bf 12cc de3c 957a d13d
00000310: 956e 683c e31e fbbe a738 c23a cdb1 77bf
00000320: 5e0e abbd d6f1 acbf 833c b73c 931b f9be
00000330: 85c3 07bd a672 48bf d351 07bd 026d 84bf
00000340: e4dc 91bd 8184 bdbf 947b c1bd f036 853d
00000350: b186 8cbe 4369 0dbf c69a a9bd 5e2b 2dbe
00000360: 3e51 0bbd b26f 95be 79b9 2d3d 892f 56bd
00000370: 5271 c03e 2ae3 f7be 0997 863e f567 bbbe
00000380: 7bdc ab3c f374 613b 1e1b 54bd 07a4 b43d
00000390: 25dd 113f 0322 29bf c925 193e c79e 62bd
000003a0: 91bf 0dbe 0079 c83e 1b68 00bf 6db4 c53e
000003b0: b23b 153f 96a6 19bf 6f46 2a3e 17a7 bbbd
000003c0: ede7 f1bd 3d6f cc3e fa8c 03bf 9d6c cc3e
000003d0: 696b 323f 9d64 8dbf cb14 bd3e c62b a8be
000003e0: be0e 1b3e db4e 443e e050 06be f60d 973e
000003f0: b7cb 1cbe f0eb debd a767 ccbe 3bf8 5a3e

sequential/dense_1/MatMul f4 [10, 20]
0.50348 -0.49586314 -0.3487247 0.5100584 0.29552782 0.04551582 0.68287 0.036144063
0.53713673 0.034989573 0.030315068 0.73485065 0.61831874 -0.17255509 0.6551703 0.32747477
0.21430309 0.8995826 0.816469 0.04696632 0.3697771 2.6321177 0.6961059 -0.23654237
0.009052995 0.051584236 -0.45352477 0.651698 -0.006226097 0.121233046 0.6077178 0.074341886
-0.09947205 0.069721706 -0.24144128 0.2075896 0.37494963 0.15569733 0.43833077 0.84852517
-1.7567937 0.4229601 -0.3057518 1.1033458 0.6298272 -0.14398628 -0.74161386 1.0369036
0.23703168 0.32678655 -0.0922094 -0.25097075 -0.16112772 1.0896902 -0.46618876 0.30198127
-0.77309394 0.7273526 -0.36381772 0.5343852 -1.3502446 -0.33050895 0.13245969 0.16212466
-1.8449516 -0.11209055 -0.3904825 0.68305594 0.15042368 -1.730914 0.1635156 0.08659053
0.85540813 0.10365305 1.215335 -0.61434823 -0.50394744 -1.0074381 -0.8192679 0.17481524
0.062737264 0.30720457 -0.7912757 0.10836108 0.10966626 -0.19873683 0.35014024 -1.2838957
-0.12122779 0.46016225 -0.62496036 0.29577062 -0.3117107 -0.07513894 0.5071779 0.36989
0.09130547 -0.37213764 -0.13445322 0.53198314 -0.18176486 -0.17004909 0.9005439 -0.24432302
0.8275787 0.7480372 0.91958964 -0.31003612 0.71091586 0.7032649 0.72784585 -0.3666846
-0.44865474 -0.13182476 0.26693338 -1.5923915 -0.2588895 -0.97156584 0.4337822 -0.22720394
-0.7659368 0.2964406 0.09557198 -1.2553247 -0.15059534 0.288554 -0.30713758 -0.3179915
0.56720525 -0.15212277 0.47916088 -0.0612466 -0.3464386 -1.7572211 -1.1509892 -1.3441931
-0.95457554 -0.10765723 0.571095 -1.7339742 0.41773686 1.7665126 0.64909804 0.035621747
0.5109737 0.9950459 -0.5138777 0.21089423 0.28211856 0.61338776 0.47130898 1.3306844
0.78952086 0.37911585 -0.120928295 0.9451546 0.45104733 1.0367498 -0.09285528 -0.1535923
1.5934207 -0.20117778 0.116059035 0.1565862 0.2152216 0.17106092 0.68093765 0.22331548
0.26692402 0.1956475 0.14366575 0.32926208 1.3122708 0.24595268 2.333583 0.78043526
1.1591325 -0.50366986 0.0639693 0.7146449 -0.68048984 1.5016507 0.27741325 0.08749877
-1.2072932 0.3088999 -1.9914925 1.3411012 0.49226287 -0.66054904 0.09554264 0.39471814
0.16813408 -0.63580453 -0.58548385 0.08334067 0.18359573 -0.19300064 0.50398695 -0.35803574
00000000: 11e4 003f c6e1 fdbe 0b8c b2be 3093 023f
00000010: 6c4f 973e cc6e 3a3d 91d0 2e3f cc0b 143d
00000020: cb81 093f 3a51 0f3d 4e57 f83c 2c1f 3c3f
00000030: 234a 1e3f 48b2 30be 3eb9 273f c6aa a73e
00000040: 4572 5b3e 0c4b 663f 1d04 513f c25f 403d
00000050: 6d53 bd3e 9e74 2840 ff33 323f 2a38 72be
00000060: 0353 143c fe49 533d 6634 e8be aed5 263f
00000070: 4904 ccbb 0849 f83d 6593 1b3f 8f40 983d
00000080: 01b8 cbbd 41ca 8e3d 623c 77be 5e92 543e
00000090: 66f9 bf3e 1f6f 1f3e e46c e03e f238 593f
000000a0: 9ede e0bf 3a8e d83e 808b 9cbe 6f3a 8d3f
000000b0: 5b3c 213f 2471 13be 68da 3dbf 42b9 843f
000000c0: 6fb8 723e 9150 a73e 48d8 bcbd 3d7f 80be
000000d0: aafe 24be f87a 8b3f 4bb0 eebe 4a9d 9a3e
000000e0: 7ce9 45bf c833 3a3f 5146 babe 78cd 083f
000000f0: d1d4 acbf 7838 a9be 83a3 073e 0204 263e
00000100: 6027 ecbf bb8f e5bd 52ed c7be c1dc 2e3f
00000110: aa08 1a3e 978e ddbf a270 273e 6056 b13d
00000120: 07fc 5a3f 0d48 d43d 1990 9b3f ed45 1dbf
00000130: b302 01bf bbf3 80bf 8bbb 51bf c402 333e
00000140: 657c 803d eb49 9d3e 0b91 4abf 6aec dd3d
00000150: b498 e03d ab81 4bbe 9545 b33e b256 a4bf
00000160: 4746 f8bd 639a eb3e 67fd 1fbf 3f6f 973e
00000170: 8b98 9fbe 72e2 99bd 69d6 013f 3962 bd3e
00000180: 5dfe ba3d d388 bebe 1bae 09be 0c30 083f
00000190: 9120 3abe 5921 2ebe 0c8a 663f d02f 7abe
000001a0: 33dc 533f 5e7f 3f3f 3a6a 6b3f 0ebd 9ebe
000001b0: 95fe 353f 2b09 343f 1b54 3a3f 15be bbbe
000001c0: 13b6 e5be 12fd 06be 7eab 883e 7cd3 cbbf
000001d0: 2a8d 84be 8ab8 78bf b318 de3e 26a8 68be
000001e0: 6f14 44bf 10c7 973e 3ebb c33d 7bae a0bf
000001f0: aa35 1abe 5abd 933e 2341 9dbe c8cf a2be
00000200: 5d34 113f 12c6 1bbe 9354 f53e b7dd 7abd
00000210: 6660 b1be 9fec e0bf 9d53 93bf 850e acbf
00000220: 105f 74bf 657b dcbd 4833 123f def2 ddbf
00000230: 9be1 d53e 161d e23f 4a2b 263f 1ce8 113d
00000240: 2ccf 023f 54bb 7e3f 7d8d 03bf a8f4 573e
00000250: d871 903e fb06 1d3f 694f f13e de53 aa3f
00000260: 0a1e 4a3f 791b c23e 41a9 f7bd a7f5 713f
00000270: adef e63e 38b4 843f e92a bebd 4d47 1dbe
00000280: 36f5 cb3f 8c01 4ebe 5cb0 ed3d 2258 203e
00000290: 0d63 5c3e 982a 2f3e ee51 2e3f d0ac 643e
000002a0: 44aa 883e d157 483e 1d1d 133e 0a95 a83e
000002b0: 7df8 a73f 05db 7b3e 6d59 1540 9bca 473f
000002c0: 745e 943f 82f0 00bf 5602 833d f8f2 363f
000002d0: 9534 2ebf 1736 c03f 1c09 8e3e 8e32 b33d
000002e0: 9588 9abf 2128 9e3e 3ae9 febf 34a9 ab3f
000002f0: e109 fc3e be19 29bf dcab c33d 7f18 ca3e
00000300: 572b 2c3e 16c4 22bf 45e2 15bf 83ae aa3d
00000310: 8500 3c3e f6a1 45be 4a05 013f 7650 b7be

sequential/dense_2/MatMul f4 [7, 10]
1.034484 0.38109624 0.08394283 -0.14827216 0.4238208 -0.071692675 -0.6172721 -0.19353715
0.4881376 -0.13573182 -0.16623524 0.5575471 0.054091185 -0.39799806 -0.54850334 -0.012145986
-0.47663945 0.44483104 0.6506858 -0.5137261 -0.12841234 -0.99074894 -0.49086714 -0.26497456
-0.21183017 -0.15066639 -0.78673023 0.6762697 0.44275758 -1.2155184 -1.0701098 -1.1078942
-1.6367543 -0.9633898 -0.8187012 1.319905 0.7265655 -0.7457072 -0.7307424 -0.9771408
-2.8161302 -1.3085437 0.41669098 1.52994 -0.22990492 -1.7503368 -0.71165 -2.6760323
0.3058877 -0.9021315 -0.862966 0.9893195 0.984284 -0.7315771 1.101093 -1.4236494
-0.084154755 -0.4877455 -0.8852565 0.2885658 -0.40194768 0.34267518 -0.77736485 0.4251713
-1.2197984 -0.34833133 0.70065796 0.27173853 -1.7173805 0.9717333
00000000: f969 843f 0c1f c33e 38ea ab3d a8d4 17be
00000010: 0aff d83e 9cd3 92bd 8b05 1ebf 9a2e 46be
00000020: 2ced f93e 48fd 0abe 9239 2abe 68bb 0e3f
00000030: b88e 5d3d 67c6 cbbe b76a 0cbf f5ff 46bc
00000040: 160a f4be e5c0 e33e 5893 263f 8e83 03bf
00000050: 867e 03be b9a1 7dbf f052 fbbe bfaa 87be
00000060: 02ea 58be 4a48 1abe 2767 49bf 0320 2d3f
00000070: 1fb1 e23e 1b96 9bbf 5cf9 88bf 7acf 8dbf
00000080: 2a81 d1bf b7a0 76bf 6796 51bf a6f2 a83f
00000090: 3200 3a3f abe6 3ebf ef11 3bbf e625 7abf
000000a0: 7a3b 34c0 5c7e a7bf 8558 d53e 13d5 c33f
000000b0: 326c 6bbe 090b e0bf b22e 36bf 1d44 2bc0
000000c0: 509d 9c3e 17f2 66bf 57eb 5cbf 0b44 7d3f
000000d0: 09fa 7b3f a348 3bbf 9ef0 8c3f 253a b6bf
000000e0: 5459 acbd c7b9 f9be 2ca0 62bf e6be 933e
000000f0: 16cc cdbe 1f73 af3e 6201 47bf 0db0 d93e
00000100: 5b22 9cbf 7c58 b2be 525e 333f 5021 8b3e
00000110: 20d3 dbbf 83c3 783f
