easyteach-ml/model/point_history_classifier/point_history_classifier.tflite (tflite, 6476 bytes, 6 tensors)

sequential/dense/BiasAdd/ReadVariableOp f4 [24]
00000000: f05b 18be 58cb fcbd 1a75 dbbd 3c1c 47bd
00000010: 1129 cabd 724d e0bc 6838 38bd a7e6 e6bd
00000020: a12d 0fbe b816 92bd f6af bebd 4db8 bcbd
00000030: a863 71be 9c0f cbbc a5af 28bd aa3a 9abd
00000040: dff3 c7bd 8156 10be 860b 34bd 840a 3ebc
00000050: cebe 91bd b3ea 8abd a566 0e3d 4a87 a7bd
-0.14878821 -0.12343472 -0.10715695 -0.04861091 -0.09871114 -0.027380679 -0.04497567 -0.11274462
-0.1398225 -0.071332395 -0.09310906 -0.0921484 -0.23573172 -0.024787717 -0.041183133 -0.075307205
-0.097633116 -0.14095499 -0.043956302 -0.011599187 -0.07116471 -0.067830466 0.03476586 -0.08180101

sequential/dense_2/BiasAdd/ReadVariableOp f4 [6]
00000000: 3789 7e3f 997c 9f3e 3e44 4a3e 1cf0 3bbf
00000010: 0e6e e7be fb9e 03bf
0.99428123 0.31149748 0.19752595 -0.7341325 -0.45201153 -0.5141446

sequential/dense_1/BiasAdd/ReadVariableOp f4 [10]
00000000: be1c 073f f43c c73a 43a9 b6bd ed1b ae3a
00000010: be29 2a3b 2007 ee3e 0f02 c93f bccf 9a3f
00000020: af5a 403f eda8 8c3f
0.5277823 0.001520066 -0.08919003 0.0013283469 0.0025964822 0.4648981 1.5703753 1.2094646
0.7513837 1.0989052

sequential/dense/MatMul f4 [24, 32]
00000000: 941b 68be 60dc 8f3c 3c1c fdbf 0a0a 51bf
00000010: 52e0 eebf 671b 90be afbc d5bf 1d77 47be
00000020: 9b0a c4bf d970 ce3d c7d5 96bf 483b 373e
00000030: 5348 43bf 4420 963e 5ed8 7cbe b246 a03e
00000040: 5cfa e33d 702d df3e 3507 023f fc03 d03e
00000050: 211c 063f 2682 cd3e c362 063f d558 933e
00000060: 3eee d83e a7cd a83e 0299 e73e d3d0 933e
00000070: 45c0 02be bdb0 bc3e e579 eebc 1139 d43e
00000080: 50ec 033e 04ba 9abe 7aad c6bf 8aa6 b2bf
00000090: 807b 93bf 7f0e 61bf 3b04 afbe 7772 bbbe
000000a0: 0d2b f6bd 0588 b1be 2eca 59be 64c4 c7be
000000b0: f1ad ad3c fd9d c6be d89f d33d 9b29 e6be
000000c0: 2bdf 203f b0ef 88be 3176 203f bd4a a9be
000000d0: 3a85 2b3f 66ee 0bbe 0452 1b3f 6d1a 9fbd
000000e0: 3f1c 1d3f 469a 343e 4797 d83e 569e df3e
000000f0: f7dd 163e dc91 ee3e 2d71 62be 7f3a 053f
00000100: 80cb 70bc 7020 313d 7b0b 61bf 1431 abbf
00000110: a8b2 84bf e94c 84bf 2186 abbf 040e 64bf
00000120: fd6d b8bf ba8f 2abf 2602 58bf 3ae3 dbbd
00000130: eaf1 3cbf bcf0 d03d 406f 10bf 6ef8 f63d
00000140: 1d10 b8be 5d2e 1f3e c556 8abd df3c 4e3e
00000150: 7a1a f43c 4c8e 823e 41b8 3fbd 2b44 743e
00000160: c354 11bd 99db 6f3e 7af6 023e be3f d13e
00000170: 442b 873c f2a2 343f 71fc 21bf fc85 113f
00000180: b43f 823e b87d f8bd a09b e83f 5b28 0c3f
00000190: 66a2 ff3f bb94 a23f 1e77 a03f 4730 3f3f
000001a0: 68cf a63f bc9a 293f c408 f83e dbda fb3e
000001b0: c3c0 8cbe c2a8 a43e dd5a d3be d77e e43e
000001c0: 7a1c 02bf 23eb a63e e56d 4abf a7d8 f53e
000001d0: 1b89 40bf 8945 0c3f 0b32 48bf 1113 833e
000001e0: c6dc 8dbf e71e 6bbc b14f 62bf 192e 9cbe
000001f0: 2fbf a0be 9fdc b4bc ec9a 55bf 72a2 813d
00000200: 800b b8bb 1031 86be cafc 81bf e331 ddbf
00000210: 7386 1abf a48a e6bf c3be 2e3e e75a 93bf
00000220: 3998 8b3e 8abd 48bf c39a ca3e 441d 11bf
00000230: beac 3a3f fae7 b0be 2309 2c3f ceec 33be
00000240: 510e 593f 16da b93c ed74 883f 52f0 763e
00000250: fd8a 433f 2b85 9d3e 0fcd 183f cd15 9d3e
00000260: 0daa 253e 335d ba3e 017c 963d b32a 363f
00000270: 8c88 97be a3e9 393f 5f2d 2fbe c873 083f
00000280: d404 18be 40fe 5abd 5d88 45c0 d912 16bc
00000290: e458 08c0 eef6 303e db3f 99bf e0dd 3dbd
000002a0: 4bdd 6abf 329c 54be 06bb 7abf d1cd aebe
000002b0: 40ea 04bf 32bd 2cbf b876 98be ed6a 50bf
000002c0: 200a 813d 72bb 71bf f379 f23e 5477 7bbf
000002d0: aa89 593f 1dc8 55bf 1c1a 6e3f 43c1 bcbe
000002e0: 7ff5 623f 17e6 5dbe 6407 443f 625c 083e
000002f0: bbbe 1e3f 1be5 a83e bb4c 1f3e 8150 3a3f
00000300: 64bf 2a3e 8ecf 133e 740d 243f 9c86 91bf
00000310: e6c9 833e 1fa5 96bf 3a98 0ebf 7cd5 89bf
00000320: 76dc 04bf ea17 24bf 41d1 01bf 784e 0fbf
00000330: 5c48 42bf 3447 e3be f8fa 31bf 481a 28be
00000340: b67a 2bbf f41c 05bd e0ad 1ebf a5ba 423c
00000350: 1649 68be fe1f 133e 5349 1ebe 2288 9a3e
00000360: 03d2 53bd 967e 943e 8138 66be 02ff ba3e
00000370: 1fab 39be eed4 113f fde0 f6be cd9b 7b3f
00000380: 080d 8bbd 9843 bb3d 1f5b 8e3f 91fc 893f
00000390: e918 9c3f fbd8 0d3f 7961 a53f 2736 423e
000003a0: c85b 9b3f c6d4 8abe 8567 4c3f 1c50 f3be
000003b0: 8c72 a93e 68f5 19bf 476e 07be ad7f f9be
000003c0: 6c8b c3be 90fd debe 50ba 0bbf bc01 a6be
000003d0: 3a30 44bf 585d 3cbe 7eda 09bf dec7 e3bd
000003e0: 7d39 fbbe a351 de3c c113 a1be 7d4c 233e
000003f0: 6007 163e 813e a63e d593 ea3e 1b68 bb3e
-0.2266677 0.017561138 -1.9774241 -0.81655943 -1.8662207 -0.28145906 -1.6698207 -0.19479032
-1.5315737 0.10080118 -1.178399 0.17893708 -0.76282233 0.29321492 -0.24691913 0.31303936
0.11131737 0.43589354 0.5079225 0.4062804 0.5238667 0.40138358 0.5249445 0.2877871
0.42369264 0.329694 0.45233923 0.28870258 -0.12768658 0.3685359 -0.029110858 0.41449788
0.12883115 -0.30220044 -1.5521691 -1.3957074 -1.1522064 -0.87912744 -0.34182915 -0.36610767
-0.1201993 -0.34674087 -0.21268532 -0.39017022 0.021201106 -0.3879241 0.10333222 -0.44953617
0.6284053 -0.26745367 0.62680346 -0.33064833 0.6700016 -0.1366516 0.6067202 -0.07768712
0.61371225 0.17636976 0.42302915 0.43675488 0.1473311 0.46595657 -0.22113486 0.5204238
-0.014696956 0.043243825 -0.8790814 -1.3374352 -1.0367022 -1.0335971 -1.3400308 -0.89083886
-1.4408566 -0.6662556 -0.8437828 -0.107366994 -0.7380663 0.102021664 -0.56419754 0.12059103
-0.35949793 0.1554503 -0.06754831 0.20140408 0.029797781 0.2549919 -0.046806578 0.23854129
-0.035481226 0.23423614 0.12789336 0.40868944 0.016500123 0.70561135 -0.6327582 0.5684507
0.25439227 -0.12133354 1.8172493 0.5474908 1.9971435 1.2701639 1.2536352 0.7468304
1.3032045 0.6625173 0.48444188 0.4919041 -0.27490816 0.32160002 -0.4128026 0.4462802
-0.508247 0.3260127 -0.79073936 0.48016855 -0.75209206 0.547936 -0.7820136 0.25600484
-1.1083 -0.014350629 -0.8840285 -0.3050392 -0.31395862 -0.022077857 -0.8343952 0.06329812
-0.0056166053 -0.26209307 -1.015527 -1.7280849 -0.60361403 -1.801106 0.17064957 -1.1512116
0.27264574 -0.78414214 0.395712 -0.5668528 0.72919834 -0.34551984 0.6720144 -0.17570803
0.8478747 0.022687 1.0660683 0.24115112 0.76383954 0.30765662 0.59687895 0.30680695
0.1617815 0.3639923 0.073478706 0.71158904 -0.29596364 0.72622126 -0.17107151 0.5330167
-0.14845592 -0.053465128 -3.086448 -0.009159767 -2.1304255 0.17281696 -1.1972612 -0.046354175
-0.91743916 -0.20762709 -0.97941625 -0.341414 -0.5191994 -0.6747619 -0.29778075 -0.81413156
0.06300759 -0.94426644 0.47358665 -0.98228955 0.84975684 -0.83508474 0.9300859 -0.36866197
0.8865585 -0.21669804 0.7657378 0.13316491 0.6200978 0.32987294 0.15556614 0.7277909
0.16674572 0.14434645 0.6408303 -1.1369205 0.25739974 -1.1769141 -0.5570103 -1.0768275
-0.51898897 -0.6409899 -0.5070992 -0.5597911 -0.7589166 -0.4439026 -0.6952357 -0.16416276
-0.6698412 -0.032498315 -0.6198406 0.01188532 -0.2268413 0.14367673 -0.15457658 0.30181986
-0.051713955 0.29002827 -0.22482492 0.3652268 -0.18131684 0.5696553 -0.48218527 0.9828461
-0.06789595 0.09143752 1.1121558 1.0780202 1.2195102 0.5540921 1.2920371 0.1896597
1.2137384 -0.27115458 0.7984546 -0.47522056 0.33095205 -0.60140085 -0.13225661 -0.4873022
-0.38192308 -0.43552828 -0.54581165 -0.32423198 -0.7663609 -0.18394983 -0.5384902 -0.11122106
-0.49067298 0.027138537 -0.31460384 0.15947147 0.14651251 0.32469562 0.45815912 0.36602864

sequential/dense_1/MatMul f4 [10, 24]
00000000: bb6d 073f 59ca aebe aed5 a93e 09ef 223e
00000010: 7483 8ebd 8b3a cdbe 5bdd 183e e2ea 56bf
00000020: edf5 e7be 3d38 1fbf dd8e dabe 18b6 443e
00000030: 80ba 043f 784d 0a3d bc42 edbe da6c 28bf
00000040: 18b3 37bf 2acc 49be 2dc1 b53e 490b 0bc0
00000050: e097 4ebf 5384 713e afc5 f5bf e457 04be
00000060: f87b 1240 786c 8a3f 1849 d73f 3932 a23f
00000070: 868b ba3f 3e79 8d3f de0c e73f 3a4a 0f40
00000080: 4091 f43f b8d1 9e3f 4a61 b13f abad 1940
00000090: 89ba 7b3f a57e 3a3f 981f d73f 4277 ef3f
000000a0: 1f9a 0b40 bfb3 1140 7cb3 a53f 7640 733f
000000b0: cb6a 2340 e50e 443f 3c2f c83e b6ca b23f
000000c0: 8275 993d 7bc9 2f3f ae91 09be f6f3 993e
000000d0: 5c9f e43e 89e3 6c3f 3525 9fbd 5815 5f3e
000000e0: 6999 373f ecfa da3e 9772 86be 6f80 a53d
000000f0: a67e 323f 2e8d 313f a5fd 6c3e c9e3 313f
00000100: 4003 af3e e9c7 e53e 65b1 433d f5af 7d3f
00000110: 5a05 b73d c4ab dabe 0101 5f3f 8405 233f
00000120: c0df fe3f 0eb9 943f 6719 1f40 55bd 123f
00000130: 16b7 9f3f 231c 573f 8fd5 1540 73f6 2440
00000140: 650e 1c40 ad2f 923f 4429 823f ef45 3040
00000150: 2cc5 813f 212f 603f 4e9b c13f 9dda 0740
00000160: 34a0 1740 1871 1440 089c 533f 34cb 653f
00000170: 24fb 2640 796d cb3e ebff cb3e 4a5b 403f
00000180: 1545 65be 33e0 963f 7d80 3abf fda6 8b3f
00000190: 99b2 853f d7a4 ca3f 6626 593e 37a7 2ebe
000001a0: b9dc bb3e be42 8d3f 3c5d 9f3f daa1 9a3d
000001b0: ad8b 8f3e 3e4b 9e3f 8518 883f 5474 4f3f
000001c0: 9141 3c3d d88f f5be 8e0d 8c3f aeb2 f53e
000001d0: 3618 0a3f 7b3c 023f 60ef c23d 9ec1 743f
000001e0: 3045 94be 8932 a53f 127c e2bd 7adb 0a3e
000001f0: ba95 2d3f bbc5 e8bf 8d6e 8c3d 31a1 4abe
00000200: 1eba eabe 0bd0 073f 907e 103e 74fe 1e3e
00000210: 6c0e d8be 2806 ecbf 13e2 e23e 5f46 e1bd
00000220: de2e b0be e2cb b5be e798 3c3f 0a6d f7bd
00000230: f04f 913d c83e 263f dfb6 f7bd 77cc 58bc
00000240: ca5e fb3e 8f7a 8cbf 2b59 7e3e 1b87 e9be
00000250: e9ae 37bf c9f5 c9be cadf c0bc 659d a03e
00000260: 8cee 533e 6674 10bf 7ccc 42bf f0ce 24bf
00000270: c7ff 8e3f bd19 aabe c4d0 35bf 4721 593e
00000280: c508 00bf bf06 2d3e b0cc 0dbf 6b27 b73e
00000290: c510 16be 8a7b 62be 4772 d03e 11a8 fbbe
000002a0: bda9 8f3e a359 9fbf f158 1dbd 2534 36bf
000002b0: 9e1c 3fbf 1ca9 0bbf d2dd 0fbe 6b69 d43e
000002c0: 97f0 35be bf67 55bf f58c 0f3f a23e 2bbf
000002d0: eaab 073e 2a69 3dbf 2850 93bf 2a31 6c3e
000002e0: 6b54 083f 019f db3e 132e 4bbf c7c9 2d3e
000002f0: e459 4c3e 94c6 97be 1757 c13e 0e6a 87bf
00000300: cff1 a6bf 396d d73e 89aa 3ac0 0844 35bf
00000310: 8d64 823c 6822 67bd 165a ecbf 7ce3 e5bf
00000320: d9a9 6ebd 539b 5fbd 4738 52bf 12bb c93d
00000330: cb5b c53e d343 f9be 08ff adbd 9ade b83c
00000340: 789b 2fc0 b2d3 4ebf 668d 27c0 bc6b c73e
00000350: ad39 ddbe 4f34 0cc0 d64f 123f 3a30 11be
00000360: 3ccf 34bf 9453 b63e 19e5 04bf a8cf 513e
00000370: 258e de3e 80f6 293f 2d32 c7be 615d d3bf
00000380: 04e5 47bf e75e 1c3e d68c 023f a99a 10bf
00000390: 5d5a d53d 82e2 843f 2557 b63e f785 c9be
000003a0: 7883 84bf 912e 98bf 9d7e fe3e 2f62 13bf
000003b0: 6c26 48bf 1683 3b3e 591c 5dbe f954 1d3e
0.5290181 -0.34138754 0.33170837 0.15911497 -0.069586664 -0.40083727 0.1492819 -0.8395215
-0.45304814 -0.6219519 -0.4268712 0.19210088 0.51847076 0.033765286 -0.46339977 -0.65791094
-0.7175765 -0.19706789 0.35498944 -2.1725638 -0.8070049 0.23585634 -1.9200953 -0.12924153
2.2888165 1.0814352 1.6819181 1.2671577 1.4573829 1.1052625 1.8050802 2.2389054
1.9106827 1.2407751 1.3857815 2.4012249 0.98331505 0.72849494 1.6806517 1.870827
2.1812818 2.2765958 1.2945399 0.95020235 2.5533931 0.7658523 0.39098537 1.3968112
0.07493116 0.6866681 -0.13434479 0.3006894 0.44652832 0.9253469 -0.077707686 0.21785486
0.7171846 0.42769563 -0.262593 0.080811374 0.697245 0.6935605 0.23143633 0.694882
0.34182167 0.44879082 0.0477766 0.99096614 0.089365676 -0.42709172 0.87110907 0.6368029
1.9912033 1.1618974 2.4859254 0.5732015 1.2477748 0.8402731 2.3411596 2.577542
2.4383786 1.14208 1.0168843 2.7542684 1.0138297 0.87571913 1.512552 2.122718
2.369153 2.3194027 0.8265996 0.8976319 2.6090784 0.39731959 0.39843687 0.75139296
-0.22389634 1.178717 -0.7285231 1.0910336 1.0445129 1.5831555 0.21206054 -0.17055975
0.36691836 1.1035993 1.2450328 0.07550402 0.28036252 1.2366712 1.0632483 0.8103688
0.045960966 -0.47961307 1.0941637 0.47987884 0.5394319 0.50873536 0.095183134 0.95607936
-0.28959036 1.2906047 -0.11058821 0.13560286 0.6780659 -1.8185343 0.068570234 -0.19788052
-0.4584512 0.53051823 0.1411078 0.15526754 -0.42198503 -1.8439379 0.44313106 -0.1099975
-0.34410757 -0.35507113 0.7367081 -0.120813444 0.07095325 0.64939547 -0.12095427 -0.013232342
0.49095756 -1.0974902 0.24838702 -0.4561089 -0.71751267 -0.39445332 -0.023544211 0.31370082
0.20696467 -0.5642761 -0.7609327 -0.6437826 1.1171807 -0.33222762 -0.71021676 0.212041
-0.5001338 0.16897105 -0.55390453 0.3577226 -0.14654835 -0.22117439 0.40712187 -0.49151662
0.28059188 -1.244923 -0.0384149 -0.71173316 -0.7465304 -0.54554915 -0.14049461 0.41486678
-0.17767559 -0.8336143 0.5607446 -0.66892445 0.13249174 -0.7398859 -1.1508837 0.2306563
0.5325381 0.42894748 -0.7936718 0.16971503 0.19956166 -0.2964369 0.37761757 -1.057924
-1.3042544 0.42075518 -2.9166586 -0.7080693 0.015917087 -0.056429297 -1.8464992 -1.7960048
-0.058267448 -0.054591488 -0.8211712 0.09850134 0.38546595 -0.48684558 -0.08495909 0.022567082
-2.743864 -0.8079177 -2.6180053 0.38949382 -0.43208066 -2.1906927 0.5715307 -0.14178553
-0.70628715 0.3561064 -0.51912075 0.20489371 0.43467823 0.66391754 -0.3890547 -1.6512872
-0.78083825 0.15270577 0.5099615 -0.5648599 0.10417626 1.0381625 0.3561336 -0.3936002
-1.0352621 -1.1889211 0.49705973 -0.5757169 -0.7818363 0.18311724 -0.21592845 0.15364446

sequential/dense_2/MatMul f4 [6, 10]
00000000: 19fb 0dc0 9f33 f4c0 516a a1c0 cd1f ffc0
00000010: c778 e2c0 07c8 febf eaff b43f 4641 733f
00000020: dec9 c73f a3e9 553f 3c0e ccbf 7493 ba3e
00000030: bbc7 293f 78c4 a9be d40a 903f 4190 d83f
00000040: 79dd efbe 4f2d 26bf 8c2a e4be 827d ab3f
00000050: 0db0 15bf 94c3 843f cf68 a5be 38be 003f
00000060: 887f 973e f169 90bf 98cf 423f a8bc 9f3f
00000070: 1431 bcbf 28c7 8ebf b665 e03f 259c 6f3f
00000080: 24a6 4d3f 3227 043f b2d4 133d cd79 0f3e
00000090: 3136 fa3e a842 39bf 38ff a63f 4dba a5be
000000a0: 30ef eabf 285c 2ebf c5d0 61bf cb9f d0bf
000000b0: b7f2 82bf 286e e9bf b94c cebf 6ae2 a5bf
000000c0: 5fb3 09c0 3dc1 2bc0 3b4b e0bf 4f84 6ebf
000000d0: 359c d6bd 63b7 d4bf b583 dabe cfd0 eabf
000000e0: 7d6c 71bf e136 efbf ad67 38c0 b875 0dc0
-2.2184508 -7.6313014 -5.044228 -7.972632 -7.0772433 -1.9904794 1.4140599 0.95021474
1.560848 0.83559626 -1.5941844 0.36440623 0.6632039 -0.33157706 1.1253304 1.6919023
-0.46848658 -0.64912885 -0.4456371 1.3397677 -0.5847176 1.0372186 -0.32306525 0.5029025
0.29589486 -1.1282331 0.7609801 1.2479448 -1.4702477 -1.1154528 1.753104 0.9359763
0.80331635 0.5162231 0.036091514 0.14011307 0.4886947 -0.72367334 1.3046637 -0.323687
-1.8354244 -0.6810937 -0.8820918 -1.6298765 -1.0230321 -1.8236742 -1.6117164 -1.2959721
-2.151573 -2.6836693 -1.7522959 -0.93170637 -0.10479013 -1.6618465 -0.4267861 -1.8344973
-0.94306165 -1.8688623 -2.8813279 -2.21031
