hand-gesture-recognition-mediapipe-main/model/keypoint_classifier/keypoint_classifier.tflite (tflite, 6512 bytes, 6 tensors)

sequential_4/dense_12/BiasAdd/ReadVariableOp/resource f4 [20]
000000 aa 29 1f 3e 25 5f 42 bf 47 f5 38 bf e3 1e 0f bf
       0.15543237 -0.7592643 -0.72249264 -0.55906504
000010 dc 4a 0a be a1 af d5 be 4a c8 5c bf f1 ac 6d be
       -0.13505119 -0.41735557 -0.86243117 -0.23210503
000020 b2 3f c7 be 8c 32 d1 be 0f ea 80 bf c9 32 a0 be
       -0.38915783 -0.40858877 -1.0071429 -0.31288746
000030 72 bf 3b 3e 7f 5f 35 3f ba b5 02 bf 83 51 eb be
       0.1833475 0.7084884 -0.5105854 -0.45960626
000040 6e 57 3d bf 17 80 c1 be d5 8b 2d bf 2b 42 78 bf
       -0.7396153 -0.37793037 -0.6779149 -0.96975964

sequential_4/dense_13/BiasAdd/ReadVariableOp/resource f4 [10]
000000 2b ce ec 3e 90 a9 91 3f cd af 80 3e 79 f9 8a 3e
       0.46251044 1.1379871 0.25134125 0.27143458
000010 8f 32 55 3f 8c c0 ee bd 9b 85 56 bb 2d 8d 29 3f
       0.8328027 -0.11657819 -0.0032733444 0.6623104
000020 f0 77 9a bd c9 e3 53 3e
       -0.075424075 0.20692362

sequential_4/dense_14/BiasAdd/ReadVariableOp/resource f4 [6]
000000 a1 f3 69 bf 15 ea bd be 05 e3 e1 3e 47 b3 58 bb
       -0.91387373 -0.37092653 0.44118515 -0.0033065842
000010 b7 f4 81 3f d1 47 f7 3c
       1.0152806 0.030185612

sequential_4/dense_12/MatMul f4 [20, 42]
000000 76 16 10 3e 9b 92 9b be 67 39 9f 3e 74 dd 45 bf
       0.14071068 -0.3038529 0.31098482 -0.77291036
000010 2c 9f 53 3e b6 2e c9 be 23 77 e1 3c fc f8 20 be
       0.20666188 -0.3929345 0.02752263 -0.1571998
000020 5c 76 4c bd 40 7e 0d be 3f f1 22 be 1c d3 fb bd
       -0.049917564 -0.13817692 -0.1591234 -0.12296125
000030 04 33 1b 3c 4f 4b 18 ba 3c 85 cc 3d 17 8e 47 3e
       0.009472612 -0.00058095617 0.0998635 0.19487797
000040 64 47 7f 3e 32 ac 88 3e dc 7d 12 bf 8f ad 7a be
       0.24929577 0.26693875 -0.57223296 -0.2448027
000050 72 4a d5 be fd b1 08 3e 1d 26 8f 3d ee 17 49 3e
       -0.4165836 0.13349147 0.069896914 0.19638035
000060 3e b2 91 3e 59 9e 9f 3d e9 c9 8d bf 52 d5 24 be
       0.284563 0.07793874 -1.1077243 -0.16097
000070 f9 62 42 bf 97 78 75 3d 54 5d 9a bd 29 8d 60 3d
       -0.7593227 0.059929457 -0.07537332 0.05482212
000080 f6 58 3d bd 25 6f 34 bf 83 a4 aa bf 8b 28 d1 3d
       -0.046227418 -0.70482093 -1.3331455 0.10212811
000090 72 a1 b7 bf ce de 7c 3e d1 26 49 bf 7a c4 b5 3e
       -1.4346144 0.24694368 -0.78574854 0.35501462
0000a0 c1 cf ff bd a0 43 9b 3e ea 7c 2f 3e cb 42 38 be
       -0.12490798 0.3032503 0.17137495 -0.1799423
0000b0 99 71 ca 3e 52 1f c4 be 4d e0 a1 3e 74 a4 88 be
       0.39539793 -0.38305146 0.3161644 -0.26687968
0000c0 1d ea 69 3e 85 dd 84 be 80 20 08 3e ec 01 98 be
       0.22843213 -0.25950256 0.13293648 -0.29688966
0000d0 28 7b 4b 3e 07 a6 99 bd 8b 0d e6 3c 9d 74 af bc
       0.19871199 -0.0750237 0.02808263 -0.02141791
0000e0 4f 0b 1a be 97 ee e1 3d 60 03 68 be e8 ae 25 3e
       -0.15043376 0.110318355 -0.22657537 0.16180003
0000f0 f0 dc fd 3d 85 b5 be bc 96 3f 02 3e 72 97 d7 bd
       0.12395656 -0.023279915 0.12719569 -0.10526933
000100 69 c7 15 3e 30 a1 21 bd 4d 46 5a 3e 8e f9 df bc
       0.1462685 -0.03946036 0.2131588 -0.027340677
000110 12 96 84 3d ee 15 be bc 95 2b 20 3e 7a 54 41 be
       0.06473936 -0.023203816 0.15641625 -0.18879882
000120 60 34 b3 3e e6 60 98 be 5e fa 4a 3f ad 0b bd be
       0.35000896 -0.29761428 0.7928828 -0.3692297
000130 50 8f 6e bd b4 89 db 3c bb b9 87 bd 98 6f 9d 3d
       -0.058242142 0.02679906 -0.06627222 0.076873004
000140 9a dd ac bd 20 59 2e 3e 62 47 54 bd 40 e7 91 3e
       -0.08440705 0.17026186 -0.05182589 0.28496742
000150 c2 ed 9b 3e e4 96 36 3e 17 de f6 3e 61 50 cc be
       0.30454832 0.17830998 0.48216316 -0.39905074
000160 8f 21 b5 3e 0b b1 57 be 0e 8b d7 3e aa 6c c0 be
       0.35377166 -0.2106363 0.42098278 -0.37582904
000170 f8 cf aa 3e 5b f7 c9 bd 30 85 0f 3f 22 28 75 3c
       0.33361793 -0.098616324 0.56062603 0.014963182
000180 0e 01 c6 3d 59 55 d5 bc 98 4a bd be 70 92 fe 3d
       0.0966817 -0.026041673 -0.36970973 0.124302745
000190 5b d5 06 bf ac 7c 49 3e f8 71 2e 3f bd d2 6d bb
       -0.52669305 0.19676465 0.6814265 -0.003628894
0001a0 e1 31 11 3e ac 3b 2a bd 6e ad 9c be 80 13 8d 3d
       0.14179184 -0.041560814 -0.30601066 0.06888485
0001b0 d1 ef e2 be 36 aa c8 3d 94 6b 49 3f 33 d4 d0 bc
       -0.4432359 0.0979809 0.78679776 -0.02549181
0001c0 43 6b 8f 3e 8b 55 20 be 63 7f 20 bd 25 98 1e bd
       0.28011522 -0.15657632 -0.039183985 -0.038719315
0001d0 e8 69 6f be 1c 9c 9e 3d 47 43 5d 3f 8f 23 3e be
       -0.23380244 0.07744619 0.8643078 -0.18568252
0001e0 ee 37 ca 3e 0b c4 10 be 0a 00 78 3e 75 b4 32 3d
       0.39495796 -0.14137284 0.24218765 0.04362913
0001f0 bf 2c 33 bd 17 b4 db 3b b0 1e b4 bd 80 4e f3 3c
       -0.043743845 0.006704818 -0.08794916 0.029700518
000200 8a e4 c1 3e d2 ff 2a 3f 84 59 9e 3e df 9f 3e 3e
       0.37869674 0.667966 0.3092767 0.18615673
000210 8b 79 e1 3e aa 95 bb 3d 6e 94 81 3f fb d9 e8 3c
       0.44038042 0.091594055 1.0123422 0.028424254
000220 5f 92 04 3c d2 5e 3e bd 62 83 86 bd a4 06 17 3d
       0.008091538 -0.046477146 -0.06568028 0.036871567
000230 84 c2 3a bd 79 a7 9f 3d 4c 41 85 bd d1 f7 4b 3d
       -0.04559566 0.07795615 -0.06506595 0.049796883
000240 13 3f 85 3d 74 ee d6 bd ab d2 bd bc 8c a0 13 bd
       0.06506171 -0.104947 -0.023171743 -0.03604178
000250 ea ce 9b bd cb 8e a4 bd 1d 5f 5a be a1 c4 9d be
       -0.07607825 -0.08035048 -0.21325345 -0.30814078
000260 7e 5e 50 3e c2 61 eb bd 8a e8 23 be 4f 05 9f bc
       0.20348546 -0.11493255 -0.16006675 -0.019411711
000270 72 7a f6 be bf 13 05 be f8 44 04 bf 0b ca 1e be
       -0.48140293 -0.12995814 -0.5166774 -0.15506761
000280 c5 8a d0 3e f7 9a 76 bc cc 15 c3 bd 63 1c 9e 3d
       0.40730873 -0.015051595 -0.09525642 0.07720258
000290 e4 f5 0f bf ae 05 b2 3d f3 58 6c bf 9f 32 9d 3d
       -0.56234574 0.086924896 -0.92323226 0.07675671
0002a0 8b 51 23 be d8 f6 51 3d 63 42 03 bf 5a 89 aa be
       -0.15949075 0.0512608 -0.51273173 -0.33307916
0002b0 96 55 09 bf 3a 1f f3 3c 8e cc 5f bf b9 b9 1b bd
       -0.5364622 0.029677976 -0.874215 -0.038018916
0002c0 19 a0 af be 54 f4 e9 bc eb 3f 37 bc db 86 7c 3d
       -0.34301832 -0.028558888 -0.011184673 0.061652046
0002d0 b1 76 0b 3d 4c 02 1e 3d 4d 12 fb 3d 6b 85 6e 3d
       0.03404874 0.03857641 0.1225935 0.058232706
0002e0 82 94 57 3e e9 2d 60 3d 9e 12 39 be df e7 6c 3d
       0.21052745 0.054731283 -0.18073508 0.057838317
0002f0 95 ae 53 be a7 1d 29 3d 3f ff 9f bd 5b 04 7c 3d
       -0.20672067 0.041288044 -0.07812356 0.06152759
000300 dd 5a 75 bd 05 d5 25 3d c1 ff 16 be 64 bc 83 3d
       -0.059901107 0.040486354 -0.14746 0.06432417
000310 21 f6 01 be 94 e2 e3 ba f4 a5 68 3f e2 58 47 be
       -0.12691547 -0.0017386251 0.90878224 -0.194675
000320 6f d6 c4 3f 11 af b0 be 69 c2 0f be 41 3d e1 3d
       1.537794 -0.34508565 -0.14039005 0.109980114
000330 52 aa ad bc b0 1a be 3d 2c 88 28 3e 1c 70 ef 3d
       -0.02119938 0.09282434 0.16458195 0.11691305
000340 5b 34 16 3f 0b 75 1e 3e 3c 54 8a 3e 14 66 ec 3d
       0.5867364 0.15474336 0.2701739 0.11542907
000350 2d 77 9d be c0 94 50 3e da 80 01 be d5 bd 2b 3e
       -0.30754986 0.20369244 -0.12646809 0.16771634
000360 cb 77 9a 3d 77 63 27 3e c7 c1 6f 3e cc c1 1a 3d
       0.0754238 0.16346537 0.23413764 0.037782475
000370 c9 99 e3 3c 76 35 96 be c5 4b ed 3d 1b 4a 85 bd
       0.027783291 -0.29337662 0.115867175 -0.06508275
000380 6c 98 0a 3e 41 15 92 3c 41 45 33 3e fe 83 66 3d
       0.13534707 0.0178324 0.17506887 0.05627822
000390 8a f0 a0 3e 48 4a e0 be a5 04 8c bd b6 b4 72 3d
       0.31433517 -0.43806672 -0.068368234 0.05925437
0003a0 17 47 e7 be 78 18 1e 3e 1e 55 0a bf 34 1a ce 3d
       -0.45171425 0.15439022 -0.5403613 0.100635916
0003b0 f3 83 29 3f 16 b9 b8 be 7a cb 81 3e 36 5b 4e 3d
       0.66216964 -0.3607871 0.25350553 0.050379954
0003c0 7e d8 18 be b7 42 8e 3d d5 d7 de bd 3e ef aa bd
       -0.14926335 0.069463186 -0.108810104 -0.08346413
0003d0 d3 18 39 3f 3e 77 8c be ee 43 c1 3e 00 00 ed 3d
       0.72303504 -0.27434725 0.3774714 0.115722656
0003e0 1a 17 0c 3d 86 1e 32 3e e6 04 f2 bd 4c 39 12 bc
       0.03420172 0.17394456 -0.118173406 -0.008924793
0003f0 f4 61 c4 3d f4 4f 4b 3e 75 3f f1 bd bb 78 4b 3e
       0.095889956 0.19854718 -0.117796816 0.19870274

sequential_4/dense_13/MatMul f4 [10, 20]
000000 f4 fe ea 3c d5 48 ef 3e 90 9b f1 3e 39 8f 53 bf
       0.028686024 0.46735254 0.47188997 -0.82640415
000010 be 9b 6f bf 96 aa 54 be e5 04 eb 3e 1b a4 4e 3f
       -0.9359702 -0.20768198 0.45902172 0.80719155
000020 47 92 7c bf d2 3b 9e 3b 25 f4 44 3f f0 81 1e 3f
       -0.986607 0.0048289085 0.76935035 0.6191702
000030 8f ed 20 bf b1 e7 87 bc de 44 14 3f 28 b6 5c 3f
       -0.62862486 -0.016589971 0.57917583 0.8621545
000040 12 2f 1a 3e e9 fd 79 be ff 8d 36 bf e0 95 03 bf
       0.15057018 -0.24413265 -0.7131042 -0.51400566
000050 96 8b c7 3e c4 c8 b6 bd 97 99 09 3f 8e 00 d8 3d
       0.38973683 -0.08925012 0.53749985 0.10546981
000060 eb ad 16 3d 72 d1 2e 3f 40 85 ea 3e 69 8b e8 be
       0.036786955 0.6828834 0.45804787 -0.45418862
000070 5e 61 bc be 36 38 42 be 54 17 e3 3e fc aa 4e bf
       -0.36793035 -0.18966755 0.44353735 -0.8072965
000080 d2 f7 15 3e f1 9f c8 bc 3b 23 85 be 80 41 21 bf
       0.14645317 -0.024490329 -0.2600344 -0.6299057
000090 d6 34 6f 3f 31 42 de be f2 1b fa be f6 a3 59 3f
       0.93439996 -0.43409875 -0.48849446 0.8501581
0000a0 cf 11 44 3f 43 cd d3 be 07 a4 b0 3c 24 0c 34 3f
       0.76589674 -0.4136754 0.02156259 0.70331025
0000b0 26 5b a3 3d 7f f1 d5 3e c1 78 27 bd 78 f2 30 bf
       0.079763696 0.4178581 -0.040886644 -0.6911998
0000c0 d8 08 ff 3e 05 27 34 3f de b1 32 be 68 ba f9 3d
       0.49811435 0.7037204 -0.17450663 0.12193757
0000d0 92 47 7c be 5d 16 93 3e c4 c2 42 bf 39 00 eb 3e
       -0.24636677 0.28728 -0.7607844 0.45898607
0000e0 fd bc ae 3d 47 cd 07 be a2 e6 19 bf 11 fa d2 be
       0.085321404 -0.13261901 -0.6011754 -0.4120641
0000f0 6e dd 2d be 68 53 54 3d 1a b9 8b 3e c7 bd 26 bf
       -0.16979 0.051837355 0.2728966 -0.6513333
000100 06 6b 93 3f ba 81 0d 3f 1d 63 b2 be a3 1f 84 3e
       1.1517036 0.5527607 -0.34841242 0.25805387
000110 34 06 0e 3f 83 6c e8 3d 25 ec 8a be e1 41 22 3f
       0.55478215 0.11348822 -0.2713329 0.63381773
000120 0e b6 75 3f d6 37 27 3f fd 39 4a bf c2 9f 33 bc
       0.9598092 0.65319574 -0.78994733 -0.010963382
000130 b9 d3 89 3e 85 58 0a be 2a 51 ae be ec 9b 9f bd
       0.26919344 -0.1351033 -0.34046298 -0.077934116
000140 60 4e 16 3e 38 c1 a7 be f6 4d e4 be 67 9f f9 3e
       0.14678335 -0.32764602 -0.4459073 0.48754427
000150 e1 dc 05 bf 8f df 0a bf 76 aa e4 be 90 b5 e0 3c
       -0.5229016 -0.54247373 -0.446613 0.027430326
000160 d0 09 00 3f be 50 ac bc e1 92 41 bf a1 7f 51 3d
       0.5001497 -0.021034595 -0.75614744 0.051147107
000170 97 23 13 be 80 1c df 3d be 28 a9 3e 32 29 66 3d
       -0.14369045 0.10894108 0.33038896 0.05619163
000180 42 a2 46 bf 1c 3d 90 3f 6b 16 81 3f b0 a8 2a 3d
       -0.77591336 1.1268649 1.0084966 0.04166478
000190 80 f9 f1 3d f4 1c 81 3e ab 89 1a 3f 99 c5 f5 3e
       0.118151665 0.25217402 0.60366315 0.48002318
0001a0 17 99 b4 3e 8e 7e b3 3e 7d 01 37 3c 95 42 6b bb
       0.35273048 0.3505749 0.011169788 -0.003589784
0001b0 bb c1 4f 3e 05 93 50 3f ca e5 01 3f d3 fa d1 3e
       0.20288746 0.81474334 0.50741255 0.41011676
0001c0 a3 81 8e be 53 8d 24 3e 30 d7 d1 3c de 2a 6d 3d
       -0.2783328 0.16069536 0.025615305 0.05790221
0001d0 3a e1 61 3e e3 d3 cf 3e 6e 14 9d 3f c4 51 64 3f
       0.22058573 0.40591344 1.227186 0.89187264
0001e0 02 14 0f 3f 5e 4f 67 3f 96 98 27 3f f2 9a 97 3f
       0.55889904 0.9035548 0.654672 1.184416
0001f0 0f 19 3a be a9 46 18 3f 31 a0 81 3f 3f f0 05 3f
       -0.18173622 0.5948282 1.0127012 0.5231971
000200 8a 46 1a 3f a5 37 87 3e 06 c3 78 3f 04 87 ab 3f
       0.60263884 0.2640964 0.9717258 1.3400578
000210 d5 ba 42 3f 3e 49 6c 3f 35 18 47 3f bd 54 08 3f
       0.76066333 0.9229926 0.7777131 0.532543
000220 00 ea a4 3e 42 01 39 3e 35 ce 63 3e 1e d4 02 3e
       0.32209778 0.18066886 0.2224663 0.12776229
000230 68 00 af bd 36 fb 8d bf 69 f0 c4 be 32 da 71 bf
       -0.08544999 -1.1092288 -0.38464668 -0.94473565
000240 87 f9 7b 3e 72 bc da be 47 35 95 3e cc 74 df 3e
       0.24606906 -0.42721897 0.2914221 0.43643796
000250 a5 f9 94 3e d7 8b ac be c6 1a 35 3f 6f 51 5c be
       0.29096714 -0.3370044 0.7074398 -0.2151544
000260 ff 20 0f bf cd 22 36 bf 2b 50 7d 3e b1 90 4a 3e
       -0.55909723 -0.7114685 0.24737613 0.19781758
000270 da f1 e0 3e 97 b6 d8 3e f0 fb 52 3f 22 c5 01 3f
       0.43934518 0.42326805 0.82415676 0.50691426
000280 c7 4e 92 3d 45 d3 06 3f 44 3c 46 3e 4a 9b 4b 3f
       0.07143932 0.5266612 0.19358927 0.7953383
000290 4a 84 04 3f 2a e0 ed bd 8a 4e 54 3f e8 78 71 3f
       0.5176436 -0.116150215 0.8293234 0.94325113
0002a0 2f 7e 86 bf e5 f2 55 3f 17 27 15 bf 5f 13 cf 3f
       -1.0507258 0.8357375 -0.5826277 1.6177787
0002b0 6f 3c a8 3e 1d e5 35 be ba 76 8a 3f aa 48 14 3f
       0.32858607 -0.17763181 1.0817482 0.57923377
0002c0 31 64 53 3e 42 3e 0e bd 87 4f d2 3e 3e 83 4d 3f
       0.20643689 -0.034727342 0.410763 0.80278385
0002d0 36 73 99 3e 16 9a c5 3e 0a 55 d1 be 28 ce 72 3f
       0.2997071 0.3859412 -0.40885192 0.9484582
0002e0 28 35 1a 3f 88 ec cc bc b5 d1 72 bf 46 46 9b 3e
       0.6023736 -0.02501513 -0.9485124 0.30327052
0002f0 4a 55 a0 3f 6f b7 43 3f df 6e 0f 3e ef 12 c3 3e
       1.2526028 0.7645177 0.14007138 0.38100383
000300 29 ed 5a 3e 0c 2e 63 bf bc 9d b0 3e 45 bd b5 3e
       0.21379532 -0.88742137 0.34495342 0.35495964
000310 e6 db 5b be 3d 22 01 3e 05 b1 50 bf ab 5d 99 3f
       -0.21470603 0.12610717 -0.8152011 1.198171

sequential_4/dense_14/MatMul f4 [6, 10]
000000 78 11 e6 ba 2b 60 a6 bf 46 f7 39 3f 25 70 17 3f
       -0.0017552814 -1.2998098 0.72642934 0.59155494
000010 00 13 e7 3e 71 b4 a9 3e d4 8c 3e 3f 10 0e f1 be
       0.45131683 0.33145478 0.74433637 -0.4708104
000020 54 64 12 3f 46 ee 0f 3f 15 4e 05 bf 49 51 d3 3e
       0.5718434 0.5622295 -0.5207227 0.41272953
000030 b1 6f 9b be 3f 10 a7 bd dc 8a 50 bf c2 d4 85 3f
       -0.3035865 -0.081573956 -0.8146188 1.0455554
000040 8b e9 91 3f 88 13 a2 bd 98 2a 91 3d 3d 49 aa 3e
       1.1399397 -0.079138815 0.07088202 0.33259
000050 ec 9f 8b bc e1 a9 90 3f 4f 74 1a 3f c1 ab 6c 3f
       -0.01704403 1.1301843 0.6033372 0.92449576
000060 a4 e2 1d be 86 4f 2d bf 06 9b f7 bd 79 c9 58 bf
       -0.15418488 -0.6769947 -0.12090115 -0.8468242
000070 71 57 2a bf 1c 6b b3 be d5 43 9b bf b4 09 e3 3e
       -0.66539675 -0.35042655 -1.2130076 0.4434334
000080 d6 3b ab bf 24 da 2b bf 6e 22 18 3f c7 87 03 3f
       -1.3377635 -0.6712973 0.59427536 0.51379055
000090 78 65 ea bf 04 25 5d 3f d9 2c 17 bf d3 3b 27 3f
       -1.8312216 0.86384606 -0.5905281 0.6532566
0000a0 c2 a5 9b bf a0 62 fd 3e 8a 8f 08 c0 7c e1 87 bf
       -1.215996 0.49489307 -2.133761 -1.0615687
0000b0 25 92 a6 3f 4e b7 22 bf f6 dd ed bf aa 95 ed 3e
       1.301335 -0.6356095 -1.8583362 0.46403247
0000c0 36 91 5e c0 4a 08 2a c0 55 06 c1 3f f6 17 c9 be
       -3.477613 -2.656756 1.5080057 -0.39276093
0000d0 f9 3d 33 be e9 0e a3 bf 5d 5c b8 bf 92 44 aa bf
       -0.1750411 -1.2738925 -1.4403187 -1.3302176
0000e0 96 3c cb 3d f3 ba 3d 3f fc cc 50 bd ec aa bc bd
       0.09923665 0.74113387 -0.05097674 -0.09212288
