easyteach-ml/model/keypoint_classifier/keypoint_classifier.tflite (tflite, 6708 bytes, 6 tensors)

sequential/dense/BiasAdd/ReadVariableOp f4 [20]
00000000: 683d e6be b42d 863e b47c babf 20b5 58bf
00000010: 9e36 a2bf c92e c6be c421 3bbe ec3d b5be
00000020: 5194 513f 9950 41bf 1e7e 8ebe 8dea 89be
00000030: 7a99 72bf 2d61 25bf 1e0d 72bf 8c60 5ebd
00000040: 88e6 59bf 1cab 2fbf 8779 7cbf aa01 3c3f
-0.44968724 0.26206744 -1.4569306 -0.84651375 -1.2672918 -0.3870757 -0.182746 -0.35398805
0.8186694 -0.7551361 -0.27830595 -0.2693676 -0.94765437 -0.64601403 -0.94551265 -0.054291293
-0.8511739 -0.6862047 -0.98622936 0.7344004

sequential/dense_2/BiasAdd/ReadVariableOp f4 [9]
00000000: 3282 77bf a661 57bf 15fc 9d3f b580 1dbf
00000010: cc54 8f3e c622 083f 87d1 c23d 1dd0 b33f
00000020: e8fd 52bf
-0.9668304 -0.84133375 1.2342554 -0.61524516 0.27994382 0.5317806 0.095126204 1.4047886
-0.8241868

sequential/dense_1/BiasAdd/ReadVariableOp f4 [10]
00000000: 1dfa b0bd a0e4 45bf 6e06 ff3f 0245 d93f
00000010: 106e d6be 3326 a2bf 0ee3 9d3f 76f2 01bf
00000020: e3f0 b53f 64c2 8fbe
-0.08641455 -0.7730198 1.9923837 1.6974185 -0.41880846 -1.2667907 1.2334917 -0.5076059
1.4214138 -0.28077996

sequential/dense/MatMul f4 [20, 42]
00000000: 84fe 82be 54f8 953e f9c9 02bf 15fa 52bd
00000010: 17a1 3fbe 46ec 4c3d e3d2 ebbd 06c2 ff3d
00000020: 7a58 b6bd 7da1 f53c dc6d 223d a762 0dbe
00000030: ebb3 e0bb 414f 9ebd 2c1b ffbb 7b66 b43d
00000040: d5bb 6d3b 776e e93d cbcb 4b3d 3e54 c4be
00000050: 4584 833c 2008 59bf 223c b73b 0577 4a3d
00000060: 6f54 9f3b 2ce1 9b3e 058b 4c3d 589d 84bf
00000070: b176 25bc ede5 ed3d 504e aaba f8f2 9b3f
00000080: 27ae 3e3c b381 0340 c130 ee3c ec47 16bf
00000090: ea2a eb3b 3416 ed3e 2661 0fbc c76c 963f
000000a0: 98af c3bc ddaa ea3f 5010 7d3e f4e1 243e
000000b0: 9f68 36bf 1929 ccbe fede c7be 91ab 8c3a
000000c0: 2f3a cabd 587f 463d e88a 143f 3cc8 ba3b
000000d0: 40c7 a9bf cc24 df3c 6254 b4bf e083 c83c
000000e0: e50b 5bbf 2c45 5f3d eb7c 24bf 92d7 613d
000000f0: 742d adbf 1bd2 033d 4a22 90be 1faf ddbc
00000100: aed9 b93f ae5f c5bd 6177 fb3f c2cc 83bd
00000110: aff0 2dbe 9dae 713d bc3b 90be 3c28 923d
00000120: 41e7 82bf 4cf9 6e3d f662 03c0 a573 133e
00000130: c911 b73d fac7 2e3e 3d35 89be af07 1e3e
00000140: 3ac3 62bf 6799 2e3e 46f3 c9bf b08c ad3e
00000150: 2898 6a3d f026 98bd 095a 8cbe dd1f 36bf
00000160: 262f 1dbe f0c7 d8be fd12 97be c31a 3bbf
00000170: 5201 81be 1a27 7fbf 1afc f8be 4183 1abe
00000180: 9fe8 89bc 371c 5cbd 98b5 313e b446 1d3d
00000190: 2064 023e dcce 9b3d 6e7b fcbe 18dd cebd
000001a0: c0c6 19be 7b0f e1bc 4c12 03be 5d96 fa3c
000001b0: 7c42 f9bd 6940 b53c e15c b7be aacb c5bd
000001c0: d93b 1bbe 6fee 49bd e0c5 0e3e 3f2c 0b3c
000001d0: cabc 933e 231a 023d 5545 7bbe aa11 92bd
000001e0: 7ad6 0cbe 7a20 acbd 0911 ddbc d916 c2bd
000001f0: 941d d33d 4c6d c5bd 7cd1 563e e02e 2fbd
00000200: 7a1a b23f 0b25 ac3c 88a1 2c3f 786f 9d3d
00000210: 6a42 7b3e 2729 ae3d 7adb b0bd 10aa c63d
00000220: 10f7 043f df2b 1d3d 0427 3b3e eee4 843c
00000230: c90e 763c 2681 4f3c a43e 053b 5c51 003d
00000240: 9132 4a3e 7235 b03c 491d 9d3c 02e4 99bd
00000250: ef92 19be 2ee3 a9bf 7195 7abe 8607 c8be
00000260: bd5e dd3c 0005 373d 7a6a cfbd 3346 a6bb
00000270: be50 1cbe 87a5 b9be c7b1 f13c b358 57bf
00000280: fdb5 12be 6b8d c2ba 14cc 46be 9529 793d
00000290: 19d6 61be 4922 09be 978c 78be b803 d6be
000002a0: a0fc a13c e498 483e d2f1 98bf c164 2dbf
000002b0: 3763 17bf dbdc 83be 7ea8 9cbd 0c6b 15be
000002c0: fba7 013f b8b0 19be 3360 8ebe 3b25 8ebe
000002d0: 7b05 70be ac0c e6bd 6eee 38be a3a6 9e3d
000002e0: 41fa 21be 5ae1 043e ba1a 0f3e c6e9 c8be
000002f0: 9974 943d 1955 32be b22d 54bc b6e4 703d
00000300: 412e 703c 548b 883d d3da f43e 7d05 25bf
00000310: fc97 073e 31f0 93be b792 d2bd 1a40 b33d
00000320: f1a4 7bbe 65b2 873e fabc 0a3f ab16 80bf
00000330: c2ad 7b3e a704 f6be ee7c 20bd c0cd dcbc
00000340: 0b39 35be fa78 563e 32c3 383e a7d3 80be
00000350: 01d8 003f 1cd7 53bf 9ca1 c73e da33 7cbe
00000360: 14d3 4e3f 4617 d5bd 3bdd a73f fbf2 b7bd
00000370: ec05 303e 33e3 82bd e1d2 593e 71a4 1abc
00000380: 1424 c13d 3bbe 053d 9739 fcbd 669a 313c
00000390: 0f45 53be 4510 70bc 0b34 8a3f cf4b c43d
000003a0: 73eb 873f 8e43 7b3e 0f34 2a3f 1c8d 2e3e
000003b0: 1188 9dbe f411 f4bc 2fb0 6e3f 388e c1bc
000003c0: f935 d73f c3a9 9a3d 6c4d 563f eb88 fcbd
000003d0: dd06 aabe 3b09 52bd 50b0 183e 4565 bcbd
000003e0: 56fd 1e3f 79a3 1bbe 4d87 1d3d 6a39 01bf
000003f0: 4802 4f3d b99f 14be e75e ac3f 8d34 313f
-0.25584805 0.29291022 -0.51089436 -0.051508028 -0.18713795 0.050030015 -0.11514833 0.12488179
-0.08903594 0.02998423 0.03965555 -0.13807164 -0.0068573854 -0.0772996 -0.0077852216 0.08808609
0.0036275287 0.113980226 0.0497549 -0.38345522 0.016054282 -0.8477802 0.005591885 0.049429912
0.00486236 0.3044523 0.049937267 -1.0360518 -0.010099099 0.116161205 -0.001299331 1.2183523
0.011638201 2.0547912 0.029075982 -0.58703494 0.0071767466 0.46306002 -0.008751189 1.1751946
-0.02388744 1.8333393 0.24713254 0.1610182 -0.7125339 -0.39875105 -0.39037317 0.0010732283
-0.09874379 0.04846129 0.58024454 0.0057001393 -1.3263931 0.027239226 -1.4088252 0.024476945
-0.85565025 0.054509327 -0.6425311 0.055137224 -1.3529496 0.032182794 -0.2815116 -0.027061043
1.4519556 -0.0963739 1.9645807 -0.06435539 -0.16986345 0.059004415 -0.28170574 0.0713658
-1.0226823 0.058343217 -2.052915 0.14399584 0.08938939 0.17068473 -0.2679843 0.15432619
-0.8857914 0.17050706 -1.5777366 0.338964 0.057274014 -0.07429302 -0.2741244 -0.7114237
-0.15350017 -0.4234004 -0.29506674 -0.7308771 -0.2519632 -0.9966904 -0.48629838 -0.15089132
-0.016834555 -0.053737845 0.17354429 0.038397506 0.12733507 0.07607815 -0.4931292 -0.10100764
-0.15017223 -0.027473202 -0.12799948 0.030589277 -0.12170884 0.02212544 -0.35813048 -0.096579865
-0.15159549 -0.049299654 0.13942671 0.008494436 0.28854972 0.031763207 -0.24538167 -0.071322754
-0.13753691 -0.08404632 -0.026985662 -0.09477014 0.10308376 -0.09639987 0.2097835 -0.042769313
1.391433 0.021013757 0.6743398 0.076872766 0.24537054 0.08503943 -0.08635612 0.097004056
0.5193949 0.038371917 0.18276602 0.016222443 0.0150181735 0.012665069 0.0020331526 0.03132759
0.19745852 0.02150986 0.019179003 -0.07514192 -0.14997457 -1.3272455 -0.2447107 -0.3906824
0.027022714 0.044682503 -0.10127731 -0.0050742864 -0.15265176 -0.362591 0.029503716 -0.8411972
-0.14327236 -0.0014843171 -0.19413787 0.06083067 -0.22054328 -0.13391985 -0.24272381 -0.41799712
0.019773781 0.19589573 -1.1948798 -0.67731863 -0.59135765 -0.25754437 -0.07649325 -0.14591616
0.5064694 -0.15008819 -0.2780777 -0.2776278 -0.2343959 -0.11232886 -0.18059704 0.07746627
-0.1581812 0.1297659 0.13975039 -0.39240855 0.07248802 -0.17415275 -0.012950348 0.058811866
0.014659465 0.066672 0.478232 -0.644615 0.13241571 -0.2889419 -0.1028189 0.08752461
-0.24574639 0.26503292 0.54194605 -1.0006918 0.24578002 -0.48050424 -0.039181642 -0.026953578
-0.17697541 0.20944586 0.18043211 -0.25161478 0.50329596 -0.82750106 0.38990486 -0.24629155
0.8079083 -0.1040483 1.3114389 -0.08981892 0.17189759 -0.06390991 0.2127185 -0.00943862
0.094307095 0.03265212 -0.12315672 0.010840034 -0.20631813 -0.014652316 1.0797132 0.09584772
1.0618728 0.24537489 0.66485685 0.17046016 -0.30767873 -0.029793717 0.93237585 -0.023627385
1.6813346 0.07551911 0.83711886 -0.123308025 -0.3320836 -0.051278334 0.14911008 -0.09199003
0.6210531 -0.15199079 0.03845911 -0.5047823 0.050539285 -0.14514054 1.3466462 0.6922081

sequential/dense_1/MatMul f4 [10, 20]
00000000: 141a a03f db49 9d3f cf53 973f a932 d23e
00000010: 90b5 0940 a19e e43e f903 8a3d 9947 233e
00000020: fa47 813f 49fa f43f 4b49 a63f dd96 913f
00000030: 8a2f b03d 560a 9fbc e135 353f ad74 283f
00000040: 5e76 033f c8aa b23f a966 103f c56b a73f
00000050: d840 b1bc 9482 573c 29eb 583f c432 8a3c
00000060: 14de 5b3f 5df1 a03e 5588 1c3c c395 123f
00000070: db8a 81be a283 63be 5e01 c5bd 5c90 b2bd
00000080: f851 babe bc73 a53d 47ab 943f 2b4d 823e
00000090: 774f 6fbe d1cc d9bd 90cd 4bbd 96d4 a1bd
000000a0: bea2 69bf 1146 9d3e 37f2 13c0 6614 e53e
000000b0: 2a80 083f d5d9 e63d c84b 52bd 4f93 5a3d
000000c0: b7f4 95bf d9b0 a23e 961e 1f3f 09a1 97be
000000d0: f19c b43f 17e3 eebd 9826 ea3e 72ea 093f
000000e0: 00e8 debf 6acb 74be bfe1 073f e703 31c0
000000f0: 8332 63be eb88 91bf 69e2 9fbd 038b 493f
00000100: 4596 c63d 4a38 863e 685f a63f de3e c3bd
00000110: 6536 aa3e dafe 80bf f358 85be 2cd9 c6bf
00000120: a3bb c5bd 7d3d b03f 4310 84bf 477b 423e
00000130: 129a 0abf 956a 24bf 7def 943d bdfd 8b3d
00000140: 3e71 113f 30c8 523f 5cdc 903e a5ee 99be
00000150: ab41 103f d8c1 8abe 013a 063f 340b 143f
00000160: f265 a6be 5664 5f3e 3c35 943f e2df 793f
00000170: 3c4b 8d3e c94a a03f 27f5 acbf a30d 94be
00000180: 433c 903f 122f b13e 6e17 edbd 9a89 733f
00000190: b6d8 b63f 512d e83d 904b bd3d af23 a23f
000001a0: 7989 01be 700a 213e b807 5a3f b120 023f
000001b0: 1438 4f3f 9b9e e53e a722 8b3d 88f5 333e
000001c0: 75db ed3f 7525 d03e c196 a13e 67be 193e
000001d0: ea3d bf3e 5838 d13f 47cb 863f 9c2b 193f
000001e0: 63c2 f6be f90b 06bf e5c1 903f a713 96bf
000001f0: a475 933e 73a4 b2bf 6bac 4a3c 2717 1c3f
00000200: 0480 51bf fa22 a43e 3fd2 ffbe e3c0 973f
00000210: bb59 83be 6481 8a3d af1b ca3e 0c40 c1bf
00000220: 59e2 963e 9323 213f 49ee 9d3e 5ec5 75be
00000230: 9808 b3bd 928c 1bbf 6a12 3fbf 26a4 8eba
00000240: d353 acbd a34f 7f3f 0ea5 173f 1beb d83f
00000250: 4fb7 c5bd c54d 693f 44e8 2ebd c2aa c43e
00000260: 550c e53d c170 cc3e 3470 273f ba31 8f3f
00000270: 2a0d 35be 398e 50bf 1e6b 5dbe 1a10 31bf
00000280: 357c 9abf 5c6a ae3e b35b ae3e 6113 04c0
00000290: 2655 ecbf a033 963e 976e 21c0 9939 273d
000002a0: edf3 e9be af10 87bf fbed 633f 6d0f 203e
000002b0: d9bc 12be 54e0 863e e6c0 ddbd 089b ca3d
000002c0: 43ac ce3d a22e 43c0 b971 e5bf 1a7d 523f
000002d0: 6083 91bf 805d 743f 9831 843f a584 5cbe
000002e0: d8cc 30be cacc 8dbf c124 8bbe d65c d8be
000002f0: a3ef 9dbe 4a21 cdbe e0ac 53bf 498e 313f
00000300: 9fee 8d3f 329b 2d3e 8c56 64bd a7ea d2bf
00000310: 8c3c 3e3f 3f0b bdbd 6ff2 cb3d 1b3d 84bf
1.2507958 1.2288164 1.1822451 0.41054276 2.1517067 0.44652274 0.06739039 0.15945281
1.010009 1.9138881 1.2991117 1.1374165 0.08602817 -0.019414108 0.7078534 0.65803033
0.5135249 1.3958368 0.56406647 1.3079764 -0.021637365 0.013153691 0.84733826 0.01686991
0.8588574 0.31434146 0.009553988 0.5725977 -0.2530125 -0.22218183 -0.096194014 -0.087189406
-0.36390662 0.08078715 1.161477 0.254495 -0.23370157 -0.10634769 -0.049756587 -0.07901876
-0.9126395 0.3071752 -2.3116586 0.44742125 0.5332056 0.11272017 -0.051341802 0.05336314
-1.1715306 0.3177555 0.62156045 -0.29615048 1.4110395 -0.11664408 0.4573257 0.5387336
-1.7414551 -0.23905721 0.53078836 -2.7658632 -0.22187237 -1.1369909 -0.07806856 0.7872774
0.096966304 0.2621482 1.2997866 -0.09533475 0.33244625 -1.0077775 -0.26044425 -1.5535026
-0.096549295 1.3768765 -1.0317463 0.18992339 -0.5414134 -0.6422513 0.07272241 0.06835506
0.5681342 0.8233671 0.2829312 -0.30064884 0.563502 -0.27101016 0.52432257 0.57829595
-0.32499653 0.21815619 1.1578746 0.97607243 0.27596462 1.2522823 -1.3512315 -0.28916654
1.126839 0.34606224 -0.115767345 0.9513184 1.4284885 0.113367684 0.09242928 1.266714
-0.12650098 0.15726638 0.8516803 0.50831133 0.80944943 0.4484757 0.06793719 0.17574131
1.8582598 0.40653577 0.3156033 0.15014039 0.37351924 1.634532 1.0530785 0.5983217
-0.4819518 -0.5236202 1.1309172 -1.1724747 0.2880069 -1.3956436 0.012370209 0.6097283
-0.8183596 0.32057935 -0.49965093 1.1855739 -0.25654396 0.067629606 0.39474246 -1.509767
0.29469565 0.62944907 0.3084586 -0.24001071 -0.087418735 -0.6076137 -0.7463747 -0.001088266
-0.08414426 0.9973089 0.5923623 1.6946748 -0.09654104 0.9113429 -0.042701975 0.38411528
0.11183993 0.39929774 0.65405583 1.118705 -0.17680803 -0.81467015 -0.21622893 -0.69165194
-1.2069155 0.3406552 0.34054336 -2.0636828 -1.8463485 0.29336262 -2.5223749 0.040826414
-0.45693913 -1.0551966 0.89035004 0.15630884 -0.14329852 0.26343024 -0.10827808 0.09892851
0.1009145 -3.0497212 -1.792533 0.8222214 -1.1368217 0.9545517 1.0327635 -0.21534975
-0.17265642 -1.1078122 -0.27176479 -0.42258328 -0.3084689 -0.4006446 -0.8268566 0.69357735
1.1088446 0.16953734 -0.0557466 -1.647786 0.7431114 -0.09230661 0.0995835 -1.0331148

sequential/dense_2/MatMul f4 [9, 10]
00000000: c208 273f 325e b5be c17e 2fbf 046a b2be
00000010: d960 9e3e 7d83 933f cd46 3fbe e569 0a3f
00000020: 9b63 a2be 01c2 70be 368a 6c3f d381 213f
00000030: e840 3dbf 1591 ad3d 09f3 b13c 800b 2f3f
00000040: d640 d23c 1628 333e 3507 11bf 2926 b8bd
00000050: 6c3a 2c3f 17d4 30bf 4ace aa3d cbf1 f6bf
00000060: b879 cbbf bf7e 94bf 82f5 0640 2865 0bc0
00000070: f394 bcbf d2b2 4fc0 f4bc 52bf d9f7 003f
00000080: 9902 e43e c5d1 7dbf e45d 8bbf 95ca 83bf
00000090: 9f25 e63e 3be1 633f f49b 6f3f 4393 23bf
000000a0: 0ffd 953e c44c 00c0 4aea afbf 5765 b6be
000000b0: 2950 993e 1bf9 02c0 b0c2 293e e2ca 99bf
000000c0: a18d 9a3f 120c 603e 0132 5e3f a1f6 8cbf
000000d0: e601 f33f 7cdf d3bf 38e9 d8bf bcaf 03bf
000000e0: 144f b5bf 05c0 83bf cc06 75bf be58 6dbf
000000f0: 5e02 b9bf 0ca3 96bf 9a84 ab3e 504c 7a3f
00000100: 0fa5 1bbf 010b 043f b8d6 233e 00f4 41c0
00000110: 5cb9 fbbf 01e6 583e a780 69bf ecf6 5dc0
00000120: 7cd5 a73d 7d55 ac3f 66dd a5bf eea4 a9bf
00000130: b917 1fc0 664d 1a3f 1cae 6abf 7469 18c0
00000140: 07a6 a3bd fc0d 073f 7f7a 1ebf fc8a 62be
00000150: 50e2 613e d1b8 9f3d 4e94 293e c30f 9c3e
00000160: 14ac f23d 4466 793f
0.6524774 -0.35423428 -0.68552786 -0.34846509 0.30933264 1.1524502 -0.18679352 0.5406783
-0.31716618 -0.23511507 0.92398393 0.6308872 -0.73927164 0.08474938 0.021722334 0.6837692
0.025665682 0.1749576 -0.5665162 -0.089916535 0.67276645 -0.69073623 0.08340128 -1.9292539
-1.5896521 -1.160118 2.1087346 -2.178049 -1.4732956 -3.2452893 -0.8231957 0.50378186
0.44533232 -0.9914821 -1.0888028 -1.0296198 0.44950578 0.8901555 0.9359734 -0.6389658
0.2929463 -2.0046854 -1.3743374 -0.3562419 0.2994397 -2.0464542 0.16578174 -1.201504
1.2074472 0.21879604 0.8679505 -1.1012765 1.8984954 -1.6552577 -1.6946173 -0.51440024
-1.4164758 -1.0292975 -0.95713496 -0.92713535 -1.4453847 -1.1768508 0.33499604 0.97772694
-0.60798734 0.5157929 0.15999877 -3.0305176 -1.9665942 0.2118149 -0.9121193 -3.468196
0.08195016 1.3463589 -1.295819 -1.3253458 -2.485823 0.6027435 -0.9167192 -2.3814363
-0.079906516 0.52755713 -0.61905664 -0.22123331 0.22058988 0.07798923 0.1656048 0.30480775
0.118492275 0.9742167
