easyteach-ml/model/keypoint_classifier/10-gestures/keypoint_classifier.tflite (tflite, 6752 bytes, 6 tensors)

sequential/dense/BiasAdd/ReadVariableOp f4 [20]
00000000: c6a9 4a3f 9cb3 b9bf 1fa6 9bbf c076 27bf
00000010: b2fa ebbe b7dc f6be ee1e f5bf 38ba 7cbf
00000020: c1f7 8cbe 58d1 88bf 9930 1c3e 6a7d 313f
00000030: 8d9b 5abe a3f1 bcbe 462a 9bbe a191 8cbf
00000040: b1df e9be a5c7 9bbf 0257 acbe a3e8 e5be
0.79165304 -1.4507937 -1.2160071 -0.65415573 -0.46089703 -0.48215267 -1.9150064 -0.9872165
-0.2753277 -1.0688887 0.15252914 0.6933199 -0.213484 -0.36903104 -0.3030569 -1.0981942
-0.45678475 -1.2170302 -0.33660132 -0.4490405

sequential/dense_2/BiasAdd/ReadVariableOp f4 [10]
00000000: 77c9 e3be 2f53 bfbf 030d 323f 959c 803f
00000010: 0ff9 b43f dbe6 09bf d241 e03f 238c fa3e
00000020: 93ac 9cbf a766 49bf
-0.44489643 -1.4947261 0.69551104 1.0047785 1.4138507 -0.5386788 1.7520087 0.4893504
-1.2240165 -0.7867226

sequential/dense_1/BiasAdd/ReadVariableOp f4 [10]
00000000: eb01 ca3f 8aaf ee3f 603f f13f 0bc5 f83f
00000010: c3bb 56bf c307 8ebf c3b1 8bbf 75be 853e
00000020: 01f6 753f 0ef1 aa3f
1.5781835 1.864732 1.8847466 1.9435133 -0.8388025 -1.1096119 -1.0913624 0.2612187
0.960785 1.3354814

sequential/dense/MatMul f4 [20, 42]
00000000: 0bfb 5dbe 705b f6bc e5c0 c33f a088 073f
00000010: 9a2c 2c3f 95fa e13e 15ee ac3e 3511 c83e
00000020: dc89 b03e bb7e 933e 0d24 953e fd71 e03e
00000030: 0afd c43c 6952 3c3e 81f1 1ebc c721 bb3e
00000040: 3d41 5ebd ec28 bc3e bb35 7b3e 321d f83e
00000050: 81c5 41bc 71a8 24be d7d9 b8bd 61d8 073f
00000060: b635 9ebd d2e6 c93f 4066 343e 6aa3 dc3d
00000070: 9c37 d8bd f911 eabd 34c8 76be f3eb 313f
00000080: 10ef adbe a675 f23f e40c 203d 7b45 e4be
00000090: 9750 1ebe be14 d2be 4238 a6be 6089 fa3e
000000a0: d9b2 02bf 2335 913f 08bf 163e 5544 9ebe
000000b0: a815 2abf a285 8ebf 22e7 e3be ed59 e4be
000000c0: 15b9 00bf 3c01 edbe e854 79bd 5019 0bbf
000000d0: 2c66 7abf 8d2a 63be 9582 c3be cb9d 68bc
000000e0: 3422 623e bcc1 e33d 001f d33e bd68 113e
000000f0: bb10 8fbf d5c0 49be 411a d2be b1c1 a13c
00000100: 45a1 993e 201a 003e 2489 ca3e 9754 103d
00000110: 1b4c 4bbf bb81 13be 2727 b3be 8098 89bd
00000120: ea56 a83e b5ca 34be ab80 a93e a597 babe
00000130: 3db7 ffbe 0412 b1bd 714d f3be 02bf 9dbc
00000140: 7f3c 07be a920 d0bd ba2b d5bd 6412 86be
00000150: 00e6 c43a 0aee 8abe f7aa 383f 4113 893d
00000160: 6260 d93e 87fe acbd b651 69bd 0bfd 80be
00000170: 3c41 4abf 4d99 b3be 5154 873f ded1 efbb
00000180: 6ac0 1e3f 01ab a03d 7bd8 c2bd 750b 293e
00000190: 045c ecbe 7753 1f3e c88d 1f3f 301e 10bd
000001a0: 4dff a73e cc7d 98bb 7727 7f3e 0655 af3d
000001b0: 49ad 4d3e fd4e b33d 199e 833e 4b98 69bd
000001c0: b472 fa3e 0317 abbc d9ca 513f 8f78 2fbe
000001d0: 0e9b 933f 54e8 16bf bb05 ab3c b4f6 4cbe
000001e0: df76 cc3e e2b3 a6bd a4fa 2e3f 89e0 f2bd
000001f0: 3b75 5b3f 2067 0abf 174b 83be c00d 8a3b
00000200: 4f19 903f 58db b5bf b434 873f 70cf f6be
00000210: 47bf cd3f e211 a8be 2c58 c33f 9fe6 48be
00000220: 7464 8e3f ac5d eebd ea5c 833f 27f2 5d3c
00000230: 3371 f13e 7233 263d c72b fa3d 565f a13d
00000240: 6893 563f 014e 92bd 84cb 013f f773 8d3d
00000250: 8d60 dabd 8a7b 403e fa55 cbbe e164 a63d
00000260: dcf3 833e 97e4 623d e8f1 dd3e 6269 513c
00000270: 851c 153e 282f 0b3e b5f9 10bd a964 2fbe
00000280: 1fbe 98bd 5f4b 1f3e aae1 4a3e 0b50 073e
00000290: 5402 c73d 8484 87bd 8df9 10be 8c50 d8be
000002a0: 5d1b 1bbe ce21 1d3e 77dd 22bf 17d3 ef3e
000002b0: a71c 3abf f92c db3d d9c0 4cbf f58f 153d
000002c0: c54a 0fc0 61d3 823d 525f 6cbe c9f0 783c
000002d0: 591f 84bd 72ac cbbc 99c2 acbc 5b6c 21bd
000002e0: df83 003d 7904 febc 409b 0abe 29ea a3bc
000002f0: e833 7ebe e181 d13c 8be4 b2be bac1 d63d
00000300: 529c c9be b727 ca3d 3162 09be 528d e2bd
00000310: dfad 09be fa5d afbd 9e49 953e 6f25 783c
00000320: cbc9 953f 1d9b 2e3d d5e8 bdbd fcf5 7abe
00000330: 8b63 4f3c 2003 3cbe fc67 b13e 8a03 24be
00000340: e124 9b3f 7425 cebe 3467 223e 9662 21be
00000350: 720f 0dbe 032f 9fbe 6367 f1bd b0b7 2abe
00000360: 8cc2 22bf 1ee6 21be 09bf f0bf 192c 00be
00000370: cfc6 9e3e 3563 f5bc 65e8 003f 84fd 0dbc
00000380: 96fb b33e 7887 a03c 654f 3d3e 5373 1d3c
00000390: d344 bf3e 3f9e a7bc 8324 1e3e e2af f73c
000003a0: 5280 21bf 6b04 ab3d dce2 35bf 42f2 853d
000003b0: 4815 8b3e 849c 0bbd f4bb d43e 4dd4 1cbd
000003c0: 9193 913f bcbe 073d 839b f33f 30de b63b
000003d0: 3b7d 333e e011 b9bc d247 cc3e 2a99 04bc
000003e0: 163b 713f a4a6 7cbc 8772 b83f 4471 1bbe
000003f0: 303b 8ebe 88a6 103d 0d7d b4bf d37a 3cbf
-0.21677797 -0.030072898 1.5293242 0.5294285 0.67255557 0.4413649 0.33775392 0.39075628
0.34480178 0.28807625 0.29129067 0.43836966 0.02404644 0.18390812 -0.009701134 0.36549208
-0.054261435 0.3674997 0.24532215 0.48459774 -0.011826874 -0.1607988 -0.09025925 0.53064543
-0.07725088 1.5773566 0.1761713 0.10773356 -0.10557482 -0.11429209 -0.24099809 0.69500655
-0.33971453 1.8942153 0.039074793 -0.4458426 -0.1546043 -0.4103145 -0.32464796 0.48932934
-0.5105415 1.1344341 0.1472131 -0.30911508 -0.66439295 -1.1134531 -0.44512278 -0.44599858
-0.5028241 -0.46290004 -0.06087199 -0.543355 -0.9781215 -0.221842 -0.38185564 -0.014197777
0.2208336 0.11120936 0.4123459 0.1420011 -1.1176981 -0.19702466 -0.41035655 0.01974568
0.3000585 0.12509966 0.39557755 0.03523692 -0.79413 -0.14404957 -0.34990808 -0.0671854
0.3287881 -0.17655452 0.33105978 -0.3644382 -0.49944487 -0.08646014 -0.4752002 -0.019256119
-0.13206671 -0.101624794 -0.10408731 -0.26185906 0.0015022159 -0.27134734 0.7213587 0.066931255
0.42456347 -0.08446985 -0.05696269 -0.25193056 -0.7900579 -0.35077897 1.0572606 -0.0073187193
0.6201235 0.078451164 -0.095139466 0.16508277 -0.46163952 0.15559183 0.62325716 -0.03518504
0.32811967 -0.004653668 0.24917398 0.08561139 0.20085634 0.087553 0.25706556 -0.057030004
0.48915637 -0.020884996 0.81950146 -0.17135833 1.1531694 -0.58948255 0.020876756 -0.20015985
0.3993444 -0.08139779 0.683512 -0.11859233 0.85725754 -0.54063606 -0.25643227 0.004213065
1.1257724 -1.4207563 1.0562959 -0.48205137 1.6073998 -0.32826144 1.5261283 -0.19619225
1.1124406 -0.1163896 1.026273 0.013546503 0.47156677 0.040576406 0.12215381 0.07879512
0.83818674 -0.07143784 0.50701165 0.06906884 -0.10662947 0.18797126 -0.39714032 0.0812471
0.25771987 0.05539378 0.43348622 0.012781473 0.1456166 0.13592207 -0.03539439 -0.17128243
-0.07458138 0.15556096 0.19812647 0.13214128 0.09717241 -0.06617072 -0.14157696 -0.42248952
-0.15147157 0.15344927 -0.6361918 0.46840736 -0.7269997 0.10701937 -0.7998176 0.03651424
-2.2389386 0.063879736 -0.23083237 0.015194126 -0.064512916 -0.024862502 -0.021088885 -0.039409976
0.031375762 -0.031007992 -0.13535786 -0.020009117 -0.24824488 0.025574626 -0.3493999 0.10486169
-0.39377075 0.09870856 -0.13416363 -0.11062111 -0.13445233 -0.085628465 0.29157728 0.015145644
1.1702207 0.042628396 -0.09272925 -0.24507898 0.01265801 -0.18360567 0.34649646 -0.16016975
1.212063 -0.4026295 0.15859681 -0.15760264 -0.13775423 -0.31090555 -0.117872976 -0.16671634
-0.63578105 -0.15810439 -1.8808299 -0.12516822 0.31011054 -0.029954532 0.50354606 -0.0086664
0.35152882 0.019595847 0.18487318 0.009610015 0.37357196 -0.0204612 0.15443616 0.030235235
-0.63086426 0.08350452 -0.71049285 0.06540348 0.27164674 -0.03408481 0.41549647 -0.038288403
1.1373159 0.033140883 1.9031833 0.005580686 0.1752824 -0.022591531 0.39898545 -0.008093158
0.94230783 -0.01542059 1.4409951 -0.15179926 -0.2777953 0.035315067 -1.4100662 -0.73624915

sequential/dense_1/MatMul f4 [10, 20]
00000000: 5495 91bf b8dc d83d 92c6 bfbf b76d 2ec0
00000010: d424 5cbe cf9e d6be ecde 1c3f 4c1d 933e
00000020: 2c9c a4bf 26db cebe c3a8 f2bd 0319 adbf
00000030: 88c6 30c0 6aec 293f 16c9 d9bb d01f 053f
00000040: 9257 fabf 162f 49bf 706c da3e 9616 54c0
00000050: 782c 86be 6853 e9bd b5e6 3bbe ddf5 2ec0
00000060: 51fc 1c3f 25bd f3bd d653 10be e92c 923e
00000070: 5c92 bd3d e0a7 fbbf 9ece 4f3d 5489 1ebf
00000080: 81da a0bd 2f70 c93e 202e 1e3d 6696 fbbe
00000090: 56ff 023e 475b cebe ac73 033e dc4e 023e
000000a0: e052 d5bf 53ea d2bf fe0e 24bf 7a85 bbbd
000000b0: 9134 e4be 514c 0ebf 4641 5a3f 463a 5e3f
000000c0: 256f 4abe 1b1d acbe 2eb8 a3bd c53e d4bf
000000d0: f32a 4ebe b84e 033f 7594 293e 70c6 373f
000000e0: fe06 e33d ce10 8dc0 bbf4 523e f466 643e
000000f0: dceb 73bf 5ded 63bf 965b 233f 507e 5b3f
00000100: c036 f8bf 3ced 803f ea9f 3dbc 6ae4 4ebe
00000110: 3744 203f 6b39 25be e7f6 303f 1057 9fbf
00000120: 87f0 f7bf 250c a4bf 4c2c 903f 224b ad3d
00000130: 0c0f 80c0 1338 993e 695c 43bf 914d b6bd
00000140: 4899 15bf 8ccf 67be 8bc6 17be 82f3 e63d
00000150: 33c3 f5be 7f3f 6abd be9b 683e c37e 2b3f
00000160: c745 393f 7700 313f ab4e 4a3f 8f7e ba3d
00000170: 5b75 203f b413 013f a9d7 01be 065a e63e
00000180: 92a6 d43e 3bfd 6bbe de0f 2040 7a91 103f
00000190: c0b7 f63f e03a 413e e2f1 463f 1243 dc3e
000001a0: f12d b13f 379e d63f 7749 d63e dbc7 293f
000001b0: 6048 6a3e fd85 c23f 4cf8 483e 0d19 863f
000001c0: bf4c 2b3e bbe9 a53f e732 dc3f 866e 293f
000001d0: 8549 c13d 5dc2 d53e 8730 8e3e 643d 023d
000001e0: bf95 dbbe b782 f8bd cd01 153f d94e aa3e
000001f0: 7506 573f 4a94 20be e701 e23d 875f 5d3f
00000200: 250a 38be 89db b93f 8124 04bc 3c71 223d
00000210: 0dde 3bbf d516 ef3d e497 8dbd 10a6 afbd
00000220: 7704 ebbe 99e6 ee3f ccf8 a03d b3d9 4c3f
00000230: 670b 81bf af13 db3f 61af edbe 2293 fc3d
00000240: 2c4c a93f b0bb c43d a77c 6b3f cc85 943e
00000250: 5a82 a6be 6748 e83e 2235 0dbf ac33 29bf
00000260: 9e05 a63f ae56 e63e e77c 2bbd 4b63 e33d
00000270: d300 603f ab83 ae3f 7eba 34bf 4d42 7c3f
00000280: 481e 953e 4f96 b63e d4ad 943e fcc4 e53e
00000290: f2b5 78bf a68e e4bc 7698 603f 0dcf 133f
000002a0: 5de4 973f bb6f d9be 0fe2 a73f 8217 673f
000002b0: ebf9 cfbc 07eb ff3e 3412 0a3e 7e0e 523f
000002c0: 3be5 c13d 5147 18be 98c8 563f 1b26 2b3e
000002d0: 61dd 74be c3ee 173f ce13 c13d 1e81 03c0
000002e0: 28c7 ffbd 7b32 0dc0 cc95 c13d c657 88bf
000002f0: 8bfa 9cbb 2b22 8f3d 5b59 723c 3ac7 e4be
00000300: 9160 b0bf cd41 463e a123 42bd 87ce a5bc
00000310: 39bb b03e dc4f 073f b096 333e d638 b3bb
-1.1373696 0.10588974 -1.4982474 -2.7254465 -0.21498424 -0.41918036 0.6127765 0.2873329
-1.286016 -0.40401572 -0.11848595 -1.3523258 -2.7621174 0.66376364 -0.0066462858 0.5200167
-1.9557974 -0.7858747 0.42660856 -3.3138785 -0.26205802 -0.113928616 -0.18349726 -2.7337563
0.61322504 -0.11901311 -0.14094481 0.2854989 0.092564315 -1.9660606 0.050734155 -0.61928296
-0.07854176 0.39343402 0.038618207 -0.49138182 0.12792715 -0.40304014 0.12837094 0.12725395
-1.6665916 -1.647776 -0.64085376 -0.09156318 -0.44571355 -0.555852 0.8525585 0.8680767
-0.19768961 -0.33615956 -0.07994114 -1.6581656 -0.20133571 0.5129199 0.16560538 0.71787167
0.11085318 -4.4083014 0.2060117 0.22304899 -0.9528177 -0.8903406 0.63811624 0.8573961
-1.9391708 1.0072398 -0.011573771 -0.2020432 0.6260409 -0.16135184 0.69126743 -1.2448444
-1.9370278 -1.2816206 1.1263518 0.08461596 -4.001837 0.29925594 -0.7631288 -0.08901513
-0.58437014 -0.22637767 -0.14821832 0.11276914 -0.48000488 -0.05718946 0.22715661 0.669903
0.72372097 0.69141334 0.7902629 0.091061704 0.6267907 0.5042069 -0.12679924 0.44990557
0.41533333 -0.23045819 2.5009685 0.5647198 1.9274826 0.18870115 0.77712834 0.4301992
1.3842145 1.6767033 0.41852924 0.6632058 0.22879171 1.519714 0.19625968 1.0476395
0.16728495 1.2961954 1.7203034 0.6618427 0.09437851 0.4174985 0.27771398 0.031796828
-0.42887685 -0.12134307 0.5820587 0.3326328 0.8399423 -0.15681568 0.11035519 0.8647389
-0.1797262 1.4520122 -0.008065344 0.03965877 -0.733857 0.11674277 -0.069137365 -0.08576596
-0.45901844 1.8664123 0.07859954 0.8001968 -1.0081605 1.7115382 -0.46422866 0.12332751
1.3226371 0.09606111 0.9198708 0.2900833 -0.32521325 0.4536774 -0.551592 -0.6609447
1.2970464 0.44988006 -0.041867163 0.11102923 0.8750126 1.3633932 -0.70597064 0.98538667
0.29124665 0.3566155 0.2903887 0.4487685 -0.97152627 -0.027900051 0.87732637 0.5773781
1.1866566 -0.42468056 1.3115863 0.90270245 -0.025387725 0.49984 0.13483506 0.82053363
0.0946755 -0.14870955 0.8389983 0.16713755 -0.23912574 0.59348696 0.094276056 -2.0547557
-0.12489158 -2.206206 0.094523996 -1.0651786 -0.0047906092 0.06988939 0.014791812 -0.44683248
-1.377947 0.19361039 -0.04739726 -0.020240081 0.3451784 0.5285623 0.17537951 -0.005469422

sequential/dense_2/MatMul f4 [10, 10]
00000000: 48e2 30bf 000b dcbe f41f 7cbf 979d 31bf
00000010: 5984 653f cf44 6d3f 2607 e23e 13bb 7fbd
00000020: 9f95 6d3e ca31 e63c 27e2 36bf 7b4e 47be
00000030: 89a9 38bf 88a0 0cbf 6e38 60bd 6d9f 433f
00000040: 5d4a 593e c5ad 8f3e 6890 433f e2e6 7abe
00000050: 6a27 383f d559 123e 83cb 503f 9c63 8bbf
00000060: 0dda efbf 5b7d 1e3f 1a8e bdbf cf44 02bf
00000070: 1731 e9be 6876 29c0 4924 6ebf 2311 503e
00000080: 56f3 b1bf 6d1e 643f 0c7a e4bf c420 2bbe
00000090: 6d15 b2bf 0996 27c0 3bad 883e 3a91 8dbe
000000a0: 687b 43bf 96ac d93f f06f 9bbf 3a1f 2dbf
000000b0: b068 34bf af96 f9bf 6431 63be 8f01 413f
000000c0: 4529 46bf 1c61 29bf aa33 a53f cb18 ec3e
000000d0: 51cf 863f d404 f2bf 089e 753e 5d26 a6bf
000000e0: a900 28be c9e8 aabf de1d 25be 69c2 15bf
000000f0: 9fb7 a3bf 0fcf 8cbf fe67 863f 2e01 92bf
00000100: 0369 733f e465 fcbf 3c38 3bbf 3cce f8be
00000110: 6f22 123f 5e57 cfbf 4d7e c3bf 6522 b4bf
00000120: facb ae3f 44a8 8a3e 75ad 633d 2b91 03c0
00000130: 47db 4cc0 d1fa 0cbf 1a7a 023f 4b49 76bf
00000140: 3ab6 293f e20e e4bf 92e2 a7be 030a 5bbe
00000150: 91d6 1c3d 50a2 96be 1d1b 523f 6f1c 3c3f
00000160: 0e7c 96bf fb5b 213f f820 0bbf b4be 9bbf
00000170: dee8 8fbe 7148 063f 8f0e 3ebf c37c 8e3e
00000180: 6c65 393f baa9 92bd 584a 86bf 0e6d 343f
-0.6909528 -0.42977142 -0.98486257 -0.6938109 0.8965507 0.9268312 0.4414608 -0.062434267
0.23201607 0.028099913 -0.7143883 -0.19463532 -0.7213369 -0.5493245 -0.054741316 0.7641514
0.21219774 0.28062263 0.7639222 -0.24502137 0.7193514 0.1429208 0.81560534 -1.0889773
-1.8738419 0.6191003 -1.4808991 -0.50886244 -0.45545265 -2.647852 -0.93024117 0.20319037
-1.3902385 0.89108926 -1.7849746 -0.16711718 -1.3912789 -2.6185324 0.26694664 -0.27649862
-0.7636018 1.7005794 -1.2143536 -0.6762577 -0.7047224 -1.949911 -0.2218681 0.75393003
-0.7740672 -0.661638 1.2906392 0.46112666 1.0532018 -1.8907723 0.23986065 -1.2980458
-0.16406502 -1.335229 -0.16124675 -0.5849977 -1.2790412 -1.1000689 1.0500486 -1.140661
0.9508211 -1.9718595 -0.7313268 -0.48594844 0.5708379 -1.6198537 -1.5272919 -1.4072996
1.3655999 0.270815 0.055585343 -2.0557353 -3.2008836 -0.55070215 0.5096756 -0.96205586
0.6629368 -1.7817042 -0.32790047 -0.21390538 0.038290564 -0.2942071 0.8207262 0.73480886
-1.1756608 0.63030976 -0.5434718 -1.2167573 -0.2810735 0.52454287 -0.74240965 0.2782956
0.7242038 -0.07161279 -1.0491438 0.70478904
